mlruns/694485179914021738/71a0e159c2714aa3a054edab2149bf18/artifacts/model/data/model.pth (torch, 956598 bytes, 24 tensors)

weight f4 [256, 5]
000000 7f 39 4d be a8 7d 2f 3e 63 56 2c be e7 b6 5b be
       -0.20041464 0.17137778 -0.16829829 -0.2145649
000010 1e 78 9f be 31 46 47 3e 4f d2 f0 bd e7 25 af be
       -0.3114633 0.1946037 -0.11758863 -0.34208605
000020 a7 b4 66 bd f0 65 c6 3d 8a cb bd 3d 01 ee a5 be
       -0.056324627 0.09687412 0.092673376 -0.32408145
000030 04 6c ad 3d 3e e8 28 3d 2d 6a 87 be b2 89 ca be
       0.08467868 0.04123711 -0.26448193 -0.39558178
000040 22 70 36 be 93 e4 ac 3e 7a 04 7f 3e 5c 5a 9b be
       -0.17816213 0.33768138 0.24904051 -0.30342376
000050 18 76 c4 3e c6 d4 89 3e ae 0c be 3e 72 9c b1 be
       0.38371348 0.26920146 0.3711905 -0.3468967
000060 c4 77 b0 be 9f 74 9e be f8 78 06 be 5c fa 29 3d
       -0.34466374 -0.3094835 -0.13132083 0.041498527
000070 a0 87 a7 3d 7d 16 78 be 15 93 ce be 94 6a 03 3e
       0.08180165 -0.24227329 -0.4034659 0.12833625
000080 58 f8 ce be 5b 6e 5c 3e 8b b6 96 3e 1b f5 aa 3d
       -0.40423846 0.21526472 0.29436144 0.083475314
000090 20 99 64 3e 35 21 82 bc 28 f8 c1 be 52 8c bb be
       0.22324038 -0.015884975 -0.3788464 -0.36630493
0000a0 f2 d7 96 be fa 84 e0 be 36 66 cd be 12 e6 da be
       -0.29461628 -0.43851453 -0.40117043 -0.42753655
0000b0 21 e8 10 be 40 9e 0b 3e 74 c1 d5 bd ce 87 cb bd
       -0.1415105 0.13634586 -0.10437289 -0.09938012
0000c0 49 38 b1 bd d7 7f 42 be eb d3 c7 be d4 df 9d be
       -0.08653314 -0.1899408 -0.39028868 -0.3083483
0000d0 ff 65 35 be 3a c3 af be 5e 0c e5 3e 1b 13 ea be
       -0.1771469 -0.34328634 0.44735998 -0.457177
0000e0 87 77 99 3e 90 51 98 3d 9e 2a c8 be b6 ee d4 3d
       0.29974005 0.07437432 -0.39095014 0.10397093
0000f0 e8 5f cf be a6 5e b5 3e 5b 9f 15 bd 11 ce 8c be
       -0.40502858 0.35423774 -0.036528926 -0.27500966
000100 73 e4 c5 be ae c5 b3 3e 45 be 8f 3e b7 4a 6b 3e
       -0.38650855 0.35111755 0.28074852 0.2297772
000110 a8 6e 9c be 60 f2 9d 3e e2 14 2e be 6c 09 c4 3e
       -0.30553174 0.3084898 -0.17000154 0.38288438
000120 8e 93 8a be 70 0d a3 be 05 83 36 be 24 57 0e 3e
       -0.270657 -0.3184619 -0.17823417 0.13900429
000130 b6 6a 77 3b c4 03 d4 3e 8e ae d1 be e3 f9 26 bd
       0.0037752814 0.41409123 -0.40953487 -0.040765654
000140 1c b7 ef 3d 3e cc a1 be 2a 9f 85 3e 6e 70 da 3e
       0.11704847 -0.31601137 0.26097995 0.42663902
000150 b3 e3 e2 be 56 e3 a0 be 76 a3 7e be 72 fa 82 bc
       -0.44314346 -0.31423444 -0.24867043 -0.015988562
000160 42 73 8a be d5 d1 87 3e 77 78 12 be 98 f6 2e 3d
       -0.2704106 0.26527277 -0.14303766 0.04271564
000170 5f 8c 62 be d0 e8 69 3c f9 af c7 bd 17 a6 b3 3d
       -0.2212386 0.014276698 -0.09750361 0.087719135
000180 18 5d 8c 3e 73 30 b8 3e d5 2b 7f be 03 30 dc be
       0.27414775 0.35974464 -0.24919064 -0.4300538
000190 5d c3 87 3e e8 19 8d 3e f2 0a 9d bc d5 d4 91 be
       0.26516238 0.27558827 -0.019170258 -0.2848269
0001a0 a1 73 44 3e 55 bc b5 bd b4 9d ba be 63 50 4e 3e
       0.19184734 -0.08873812 -0.36448443 0.20147853
0001b0 e3 9f 87 be 6c df 8a be 30 bb 26 be e6 67 76 3e
       -0.2648917 -0.27123582 -0.16282344 0.24063072
0001c0 b4 e8 dc 3e fa 69 be 3e 87 b7 83 be 1f 17 99 3e
       0.43146288 0.3719023 -0.25725958 0.29900452
0001d0 23 42 c2 be 37 9b a3 3e 7a ee 2c 3e 5f 49 ca bd
       -0.37941083 0.31954357 0.16887847 -0.09877276
0001e0 41 82 b4 3e ca 73 b3 3d 6c ec bd be b3 a0 c2 be
       0.35255626 0.087623194 -0.37094438 -0.3801323
0001f0 81 8c bf be e4 d0 9d 3e e2 ba 86 be 67 64 4f 3e
       -0.37411883 0.30823433 -0.26314455 0.20253144
000200 de 66 53 be 42 8b 13 be 2f 60 c9 bd 45 59 e5 3d
       -0.2064471 -0.14408591 -0.09832799 0.111986674
000210 86 69 e3 be 6e 57 f3 bd 35 42 55 be b9 d5 3c bd
       -0.44416445 -0.1188191 -0.20826037 -0.04610226
000220 8d f3 da 3e ce 53 34 3e ad 93 c2 3e 81 a7 a4 bd
       0.4276394 0.17610094 0.38003293 -0.08039761
000230 5b db 29 be 80 53 0b be 1f d7 9f 3e be 7b 83 be
       -0.16587584 -0.13606071 0.31218812 -0.25680345
000240 fb ed 88 3e d1 d3 ab be 6a 3b 4d bc fc de 15 3e
       0.26744065 -0.3356004 -0.012526372 0.14635843
000250 37 0e b7 be db b7 a7 be f8 54 62 3c 18 7c 62 be
       -0.35753033 -0.32757458 0.013814203 -0.2211765
000260 f4 2e 86 bc 01 91 59 bc 92 01 44 be 92 78 6a be
       -0.01637981 -0.0132792005 -0.19141224 -0.22897556
000270 35 cb 8c 3e d8 55 9f be b7 9a ac 3e 7d 7f a6 bd
       0.27498785 -0.3112018 0.33711788 -0.08129785
000280 1c 0f b1 3d 3a e8 17 3d e3 cf cb 3e 4b f4 a5 bd
       0.0864546 0.037086703 0.39807042 -0.08103236
000290 16 a6 b0 3d 36 53 f2 3a e9 0e da 3e eb 6a 4c 3d
       0.086254284 0.0018487934 0.425895 0.049906652
0002a0 fd 6b 06 be e9 42 10 be 04 09 d7 be bf 8d 6d be
       -0.13127132 -0.14088024 -0.41999066 -0.23198603
0002b0 2b 34 e9 3c 13 70 99 3e 0f 4d 06 3e 08 fb 6c be
       0.028467258 0.29968318 0.13115333 -0.23142636
0002c0 74 e0 73 3e 01 f1 2f 3e e8 b5 87 be 45 c6 94 3e
       0.23816091 0.1718178 -0.2650597 0.29057518
0002d0 78 59 af be b0 d8 dd bd ec 0e be be 3f 9d 83 3e
       -0.34247947 -0.108323455 -0.3712076 0.25705907
0002e0 7f 3d 0e be 82 dc d6 be 4a 69 83 3e ab 19 b9 3e
       -0.13890646 -0.4196511 0.25666267 0.36152396
0002f0 84 67 69 3e 19 22 e1 be 81 4e ba bd 1c 49 27 bd
       0.22793394 -0.43971327 -0.09097005 -0.040841207
000300 fc 52 e4 be e3 42 18 3e e2 e3 81 3e 07 e3 e4 be
       -0.44594562 0.14869265 0.25369173 -0.44704458
000310 fd ba ac be 78 77 e7 3d 5d 6d e2 be 5e 93 b0 3e
       -0.3373641 0.11302084 -0.44224063 0.34487432
000320 59 fc c1 be 3e 84 a2 be ef cb 4e 3e 8f 19 e4 3e
       -0.37887838 -0.31741518 0.20194982 0.4455075
000330 8e 50 8c 3d 18 82 df be 21 75 c5 be 9a 46 a8 be
       0.06851302 -0.4365394 -0.38565925 -0.32866365
000340 cd fa b2 3d 26 63 e8 3c 35 fc e0 3e d9 59 b2 3d
       0.08739243 0.02836759 0.4394242 0.08708543
000350 c5 79 b0 be 8a 4d 06 3e 2a fe 96 be 38 23 8d 3e
       -0.34467903 0.13115516 -0.29490787 0.27565932
000360 97 1d 04 3e 13 e5 a5 3e 80 14 5c 3e 04 fc ae 3e
       0.12901913 0.32401332 0.21492195 0.34176648
000370 a6 0f 35 bd 26 73 d5 be 11 ca 8e be 1f 11 26 3d
       -0.044204377 -0.41689414 -0.2788854 0.04054367
000380 41 97 85 be 50 f1 02 3e 83 af bf be 02 ad a2 3d
       -0.2609196 0.12787366 -0.37438592 0.07943155
000390 2f a5 c3 be cd 03 d3 3e f6 c0 9e bd bc 92 dd 3c
       -0.38211963 0.41213837 -0.07751648 0.027047507
0003a0 aa 99 4b 3d 78 31 71 3e 7b 03 b5 be e5 12 b5 3d
       0.049707092 0.23554027 -0.35354218 0.088414945
0003b0 e1 4e bb be 7a 6c b8 3e d5 2a c1 be d6 e1 d7 3e
       -0.36583617 0.3602026 -0.3772799 0.42164487
0003c0 2e 45 5f 3e 9c 35 28 3e 15 64 83 bd df 94 9b 3d
       0.21803734 0.164267 -0.064155735 0.07596754
0003d0 b4 f4 96 3e d5 01 de 3e 33 18 dc be 29 fa ca be
       0.2948357 0.43360773 -0.42987213 -0.39643982
0003e0 7a 2d 81 be 25 ec 72 3e f9 b8 ce 3e 19 f7 93 be
       -0.25230008 0.23722894 0.40375498 -0.28899458
0003f0 1c 46 c6 3d 28 2e ce 3e e8 66 24 3d 14 85 4d 3e
       0.09681341 0.4026959 0.0401372 0.20070297

bias f4 [256]
000000 cd 64 a9 3e 5d 2a 9b be 1e 53 20 3e b5 8b cd 3d
       0.33084717 -0.30305758 0.15656707 0.100364126
000010 85 1d a4 3e ba de a8 3e 77 eb b1 3e ca ed 6a be
       0.32053772 0.32982427 0.34749958 -0.22942272
000020 dd ab db 3e 0c 82 04 3d a3 db 80 be 9f d8 3e be
       0.4290456 0.032350585 -0.2516757 -0.18637322
000030 5d 6b 74 be b6 ca a2 be ec 2e cc 3d ad cf ce bd
       -0.23869081 -0.3179528 0.09969887 -0.10098205
000040 08 df 21 3c 13 9a 91 be dc 5f d9 be 52 8c a2 3d
       0.009879835 -0.28437862 -0.42455947 0.0793692
000050 43 9b 93 3e 64 55 e3 3e 26 86 3d be d4 cb 5e 3d
       0.28829393 0.44401085 -0.18508205 0.054393604
000060 5f 03 a5 be 5f 22 90 be cc be 74 3e 6c fc 9e 3e
       -0.32229134 -0.28151223 0.23900908 0.31051958
000070 d3 47 9a 3e fd e3 58 be f2 e1 81 bc 9b b5 8a 3c
       0.30132923 -0.2118072 -0.01585481 0.0169323
000080 cf a9 66 3e 41 eb a5 3e ec ce cd be 38 b3 92 3e
       0.22525714 0.32406047 -0.4019693 0.28652358
000090 49 5c 63 be d2 d1 d2 be 00 5d 28 3e f6 95 b5 be
       -0.22203173 -0.41175705 0.16441727 -0.35465974
0000a0 51 a8 93 3d a8 b4 51 bb d1 f8 ff 3d e3 c9 64 be
       0.07209838 -0.0031998549 0.1249863 -0.22342639
0000b0 74 4c c6 be 11 76 31 3e 00 4b c5 3d 2c 77 b0 3e
       -0.38730204 0.17330195 0.09633446 0.3446592
0000c0 3d 14 d0 be 0b e7 69 bd 6c 55 f1 bb c2 55 da bd
       -0.4064044 -0.057105105 -0.0073649194 -0.10660888
0000d0 26 1f cb be 87 fc e6 bc 2e 5d ce 3e 61 7f 49 3e
       -0.39672202 -0.028196586 0.40305465 0.19677497
0000e0 fb 85 de 3d bf 37 d1 bd 5b db f5 3c b7 54 0c be
       0.108653985 -0.10215711 0.030011823 -0.13704191
0000f0 f5 9f f2 bc 21 01 bb be af 9d 91 be ad c2 a7 3e
       -0.02961729 -0.365243 -0.28440616 0.32765713
000100 a6 9a b0 3e 74 1d c9 bd ef 81 a7 3e c7 2d dc 3e
       0.34492987 -0.09820071 0.3271632 0.43003675
000110 b9 cb bc 3d 86 0c fb bb 8f 50 05 be db 7e e5 3e
       0.092185445 -0.007661405 -0.13019012 0.44823346
000120 f2 0f 54 be 34 d2 e9 bd be 1f 84 3e 68 ef da bd
       -0.20709208 -0.11417046 0.25805467 -0.10690194
000130 e7 c0 c5 be 3c 5e da bd 0d 7e b5 be 2f 02 ba 3e
       -0.38623735 -0.10662505 -0.35447732 0.3632979
000140 98 40 7b 3e 1a d2 92 3e 9d 3e c5 be 92 53 ac 3e
       0.2453636 0.2867592 -0.38524333 0.3365751
000150 43 81 52 be 37 79 b6 3e 03 db 49 bd 43 c3 75 3d
       -0.20557122 0.35639355 -0.04928113 0.06000067
000160 02 4f 53 3e 80 75 51 3d 54 75 5e be 48 80 53 be
       0.20635608 0.051137447 -0.21724445 -0.20654404
000170 44 dc ae 3e be 70 24 3e 5f 9b 4e bd d0 80 8d 3d
       0.34152424 0.16058633 -0.050441142 0.06909335
000180 d8 a1 b0 bd aa 2c df be 2b 85 90 3e e1 50 b2 3d
       -0.08624619 -0.43588763 0.282266 0.08706833
000190 6a b3 d8 be 4c a4 6c 3e e6 3c e2 be a9 39 d4 3e
       -0.42324382 0.2310955 -0.44187087 0.4145024
0001a0 41 2f 91 be 8c ad 14 3d 0b f1 53 be 27 48 5b be
       -0.28356364 0.03629832 -0.2069742 -0.21414243
0001b0 a7 ad bb 3d 66 da 0b be 44 b2 97 3e 4f af c9 bb
       0.09163981 -0.13657531 0.29628193 -0.0061549316
0001c0 f0 99 b3 bd c8 f3 e4 be 0e ae 8c bd e7 90 5c 3e
       -0.087695956 -0.4471724 -0.06869136 0.21539651
0001d0 6d 0c e8 3e ce 58 89 3e 13 95 ce 3e 0f 2f 86 3e
       0.4532198 0.26825565 0.4034811 0.26207778
0001e0 9d e5 8f be ad c1 8a 3d 79 67 7c 3e a7 cb 15 be
       -0.2810487 0.06775222 0.24648847 -0.14628468
0001f0 ca 65 91 3e 7b 2f ce be 1a db 53 be bf 37 7f bd
       0.2839797 -0.402706 -0.2068905 -0.062309023
000200 da fc 01 be 24 a0 9e be de 77 d9 be b3 6c 3e bd
       -0.12694111 -0.30981553 -0.42474264 -0.046490382
000210 79 8f e8 3e 85 9d bd be c9 62 d6 3d fc 5d e4 be
       0.4542196 -0.3703424 0.104680605 -0.44602954
000220 c5 e4 e3 bc 15 65 ab bd 55 ac 9f 3d 8c da e1 bd
       -0.027819047 -0.08368889 0.077965416 -0.11028013
000230 86 f2 93 be be af 8b be f9 5b 6e 3d b0 28 b6 be
       -0.28895968 -0.27282518 0.05819318 -0.35577917
000240 65 fa 80 3e 70 6d 9e be ca cc fb 3d da ec 79 be
       0.25191036 -0.3094287 0.1229492 -0.24406758
000250 4e eb 95 3e 06 17 9c be 60 82 d4 3e 44 1d ed 3b
       0.29281086 -0.30486315 0.41505718 0.0072361547
000260 4d 46 e0 be 38 dc 8d be 40 76 67 3e 61 bb bb be
       -0.43803635 -0.27707076 0.22603703 -0.36666396
000270 ea 1f 90 bd d7 de 36 be e8 55 94 be 4c ea 77 3d
       -0.07037337 -0.17858444 -0.2897179 0.060526177
000280 0a de b6 be 46 13 c9 3e 83 45 43 3e 86 1f 0f 3e
       -0.35716277 0.39272517 0.19069485 0.13976869
000290 a8 1d 73 bc 5a 6c fc 3d 86 94 c5 3e a1 0e cc 3d
       -0.014838614 0.12325354 0.38589877 0.09963728
0002a0 ec a1 4a 3d 82 ae 9f be 7d 4f 4a be 05 56 8b be
       0.049470827 -0.31187826 -0.19756885 -0.27214065
0002b0 c8 3d 9a 3d df 2e ba be 65 f0 25 3d 66 e9 12 3e
       0.07531315 -0.36363885 0.04051246 0.14346847
0002c0 c6 53 25 3e b8 de 21 bd 9f ea bc be b1 0c d2 be
       0.16145238 -0.03951904 -0.36897752 -0.41025308
0002d0 81 66 39 3e 01 c1 cd 3e 7b 8b af be de ed 26 be
       0.18105508 0.40186313 -0.34286103 -0.16301677
0002e0 54 a4 97 3d 7e 91 50 3d e4 04 c5 be d8 c9 ca 3b
       0.0740439 0.050920002 -0.38480294 0.0061886124
0002f0 83 fb 75 be 95 e5 c5 3e 92 3f c6 3c 1f 60 a5 be
       -0.24021725 0.3865172 0.024200235 -0.32299897
000300 81 91 b9 3e 97 79 be be dc 9a c3 3e ca 48 b3 be
       0.36243823 -0.3720214 0.38204086 -0.3501647
000310 85 10 c5 be a3 08 8c be 25 08 12 3e 32 46 4d be
       -0.38489166 -0.2735034 0.1426092 -0.20046309
000320 f3 8e 7e 3e 01 b9 a0 bd 9a 99 95 3c ba 1c 94 be
       0.24859218 -0.07847787 0.01826172 -0.28928167
000330 10 48 fb 3d e5 25 84 be 5e e6 3d be 50 db de 3e
       0.12269604 -0.2581016 -0.1854491 0.43526697
000340 ca f0 a0 be 17 5b b8 bd 93 13 71 3e f2 65 c1 be
       -0.31433707 -0.09001749 0.23542623 -0.3777309
000350 7d a5 95 be b8 ca b2 be 12 4d b5 be 6d fe 4e be
       -0.2922782 -0.34920287 -0.35410362 -0.20214243
000360 8f 6b 46 be 1f 58 02 bd c9 d6 dd 3e c8 ae e9 3d
       -0.19376968 -0.03182232 0.4332793 0.1141029
000370 38 aa b4 be d9 66 90 3e 4d 9d fd 3d d2 d9 9b 3e
       -0.35286117 0.28203467 0.12383518 0.3043962
000380 ff b5 ff 3d f2 b5 df 3e 10 1e be 3e 6c d4 bc 3e
       0.12485885 0.436935 0.3713231 0.36880815
000390 1f b7 c8 3e 27 bf de 3e e3 60 44 bc d2 77 aa be
       0.3920221 0.43505213 -0.01198599 -0.3329454
0003a0 ec db d6 be c4 24 dc 3e ac 7d 15 bd 4e 33 07 3e
       -0.41964662 0.429968 -0.036496803 0.13203165
0003b0 26 10 ac bd 0a 3c e7 3d 89 fb 14 3e 1f 16 6c 3e
       -0.084015176 0.112907484 0.14549078 0.23055314
0003c0 37 70 a0 3c ae 33 01 3e d5 24 72 be dd c1 c9 be
       0.019584758 0.1261737 -0.23646863 -0.39405718
0003d0 1d 95 78 be ec 89 ca 3d 11 98 9f 3c 33 90 ad be
       -0.24275632 0.09889588 0.01948169 -0.33899078
0003e0 77 b2 82 3d e3 5b 9e be 82 45 8b be 14 d6 67 be
       0.06381696 -0.3092948 -0.27201468 -0.22640258
0003f0 f2 e5 cc 3e 2b dd 82 3e a6 da d1 3e 49 8b 8f bc
       0.40019184 0.25559363 0.40987128 -0.017522471

weight f4 [256, 256]
000000 fc d5 d8 bc 40 2c a9 bb c5 50 2c bb 28 15 12 3c
       -0.026469223 -0.0051627457 -0.002629326 0.008916177
000010 1b 73 75 3d 78 c0 0b bd 88 98 30 bd 7b 3f 0c bc
       0.059924226 -0.0341191 -0.043114215 -0.008560057
000020 c8 09 16 bd e3 7b 12 bc 64 a6 8b bc 14 88 03 3d
       -0.036630422 -0.00894067 -0.017047115 0.032112196
000030 51 a3 73 bd 50 75 64 bc 79 af 69 3c 25 4b 72 bd
       -0.059481923 -0.013943985 0.014263027 -0.059153695
000040 28 f6 38 bc 67 72 8c 3c ca 9b 55 3d e6 ca 1c bd
       -0.011289157 0.017144395 0.052150525 -0.038279437
000050 3c 20 d4 3c ad 61 dd bc a8 16 1c 3d a2 8a 0e 3d
       0.025894277 -0.027024115 0.038107544 0.03480018
000060 80 0a 43 bc 6a 65 5c 3d 69 b8 ba bb c0 c7 10 bd
       -0.011904359 0.053807653 -0.005698253 -0.035346746
000070 c3 fc 77 bd ed 93 49 3b 5c df 1f 3d 6e 89 37 3d
       -0.060543787 0.0030758337 0.03903137 0.044808798
000080 e7 81 b5 3c d2 ab 6d 3d a6 a6 42 3d 59 25 9a 3c
       0.022156669 0.05802519 0.04752221 0.018816637
000090 48 f3 2f 3c 0e 6a 39 bd 00 bb 41 bd 4a d4 5f 3d
       0.010739155 -0.045267157 -0.047297478 0.054645814
0000a0 3f a9 2f bd a8 21 40 bd 86 f9 54 bd e8 7c 9b 3c
       -0.042886015 -0.046907097 -0.051995777 0.018980458
0000b0 8c 21 7e 3d ab 63 15 bd 32 7e 25 3c 83 29 09 3d
       0.06204371 -0.036472004 0.010100888 0.033486854
0000c0 d8 bf 35 3c 0f ac 73 3d f4 6a 58 bd 4a 7b 04 3d
       0.011093102 0.05949026 -0.052836373 0.03234414
0000d0 ea 18 64 bd 90 8d 16 3d 47 fa ef bc 81 42 59 3d
       -0.055687822 0.0367561 -0.029294146 0.05304194
0000e0 de c1 81 3c e4 cf 8a bc 57 83 34 3d 54 b9 34 bd
       0.015839513 -0.016944833 0.044070568 -0.044122055
0000f0 7e 9a 55 bd 4b 02 0f bd a8 c4 e4 3c ba e0 44 bd
       -0.05214929 -0.034914296 0.027925804 -0.04806588
000100 d8 b4 6a 3d ce bb 35 bd 92 0f 36 bd 68 35 1c 3d
       0.057301372 -0.044368558 -0.044448443 0.03813687
000110 83 e8 39 3d 4c b7 84 bd d8 5c 18 3d 8e 89 44 bd
       0.045387756 -0.064802736 0.037197918 -0.047982745
000120 b6 50 70 bd 69 bf 6c 3d 5e 84 37 bd b4 11 31 3d
       -0.058670722 0.05779973 -0.04480397 0.043229774
000130 f8 e4 9e 3c 52 5b 3c 3d a0 89 ba bc 1a 71 ed 3c
       0.01939629 0.045985527 -0.022770703 0.028984595
000140 0f 27 cd 3c a3 74 ae 3c 6e c9 4b bd 9b 3c 5b 3d
       0.025043039 0.021295851 -0.049752645 0.053524595
000150 d3 6f 40 bb 97 2c e4 bc 9a ac 45 3c 75 40 76 bd
       -0.0029363527 -0.027853293 0.012065077 -0.060120065
000160 3b e9 6e bb 6d 42 5b bd c8 9f b9 bc 62 a2 67 bd
       -0.0036454934 -0.053530145 -0.022659197 -0.056551345
000170 9d 81 38 bc 50 07 2d 3d 06 3a 12 3d 7c 21 72 3d
       -0.011261371 0.042243302 0.035699867 0.059113964
000180 24 c4 76 3d 46 86 7f bd fc 3a 5e bd f2 ae 3b 3d
       0.060245648 -0.062383913 -0.05425547 0.045821138
000190 1e 9d 3e 3d 17 ae 2f bd aa d0 32 bd 73 7a 79 3c
       0.046536557 -0.042890634 -0.04365603 0.015226948
0001a0 24 88 11 bd 38 51 9e bc 70 9d 7c 3c 4c 82 69 bd
       -0.035530224 -0.019325837 0.015418395 -0.057009026
0001b0 96 6f 34 3d a0 1f 8e 3c 71 55 1b 3d 2a 94 96 3c
       0.04405173 0.017349064 0.03792328 0.018381197
0001c0 6e 65 ee bc 60 5d 54 bc b6 82 2e 3d 63 e9 da bc
       -0.0291011 -0.012961715 0.042605124 -0.026722616
0001d0 e5 c6 6c 3d da 90 04 3b dd 32 15 bd 09 e6 f1 b9
       0.057806868 0.002022794 -0.03642546 -0.00046138492
0001e0 48 5f 79 bc 52 bc c3 3c 13 1b 9b bc 8e 29 48 bd
       -0.015220471 0.023893509 -0.018933808 -0.048867755
0001f0 01 2e 6c bc 6c a2 f3 3c 5e c3 67 bd 2d ee 39 bb
       -0.014415265 0.029740535 -0.0565828 -0.0028370724
000200 3f 4e 4f bd 58 51 0b bc 88 ab 26 bd 74 e4 36 3d
       -0.05061173 -0.008503281 -0.04069093 0.044651464
000210 00 a3 3b 3d b0 33 72 bc 28 7e 36 bd 48 8a 65 3c
       0.045809746 -0.014782831 -0.044553906 0.01401002
000220 99 6e 4d bd 00 5d 6a bd 1d 5f 00 bd 74 55 57 3d
       -0.050154302 -0.057217598 -0.031340707 0.05257173
000230 86 0e 02 3d 67 44 e1 3b eb 44 31 3d 30 25 e0 bc
       0.031752132 0.0068746093 0.043278616 -0.027361482
000240 40 7d 18 bd 2e 11 6c bd cc 7f 87 bc 30 79 b7 3b
       -0.037228823 -0.05763357 -0.01654043 0.0055991635
000250 2d 90 85 bc 80 01 2a bb 04 c8 69 3d 20 64 f8 bb
       -0.0163041 -0.0025940835 0.057075515 -0.007580295
000260 fc e6 c3 3c 1a c0 01 3d a2 16 f4 bc 50 9c f9 bc
       0.023913853 0.031677343 -0.029795948 -0.030470043
000270 68 32 57 3c e8 09 3d 3d 80 68 34 3a 84 38 ae 3c
       0.013134576 0.046152025 0.0006882027 0.021267183
000280 88 f3 57 bd 99 d1 2e bd 80 92 5f 3d 10 1c 66 bc
       -0.052722484 -0.042680357 0.054583073 -0.014044777
000290 e0 3a 75 3c 29 06 8f bc 38 03 21 3d 0f 33 76 bd
       0.01496765 -0.017458992 0.03930971 -0.060107287
0002a0 60 2c 62 3d d8 3f 09 bc 61 65 4c 3d e8 47 19 3d
       0.0552181 -0.008377038 0.04990137 0.03742209
0002b0 5a 4b 59 ba 98 9b 38 3d 30 5a 34 bc 38 0f 21 bd
       -0.00082891213 0.04507026 -0.0110078305 -0.039321154
0002c0 b8 98 58 bd 37 83 8e 3c 30 47 bf bb 8c d1 e6 3c
       -0.05288002 0.017396552 -0.0058373436 0.028176092
0002d0 ac 12 24 3d 9f fb 0a bc be 84 5b 3d 28 12 58 3c
       0.04005687 -0.008482843 0.05359339 0.013187923
0002e0 30 93 b8 3c 80 59 1e ba de 37 72 bd 3d 1c 7d bb
       0.022531122 -0.0006040558 -0.05913531 -0.0038621568
0002f0 18 5b d7 bc f6 8d 33 3d 80 7b 75 bc e8 80 54 bd
       -0.026288554 0.043836556 -0.014983058 -0.051880747
000300 a6 0d 32 bd 90 27 ee 3b 15 e2 4c bd 14 63 6f 3d
       -0.043470047 0.0072679 -0.050020296 0.058444098
000310 de 5e 54 3d 98 97 7c 3d e4 df 56 3c c0 52 25 bc
       0.051848285 0.06166801 0.013114903 -0.01009053
000320 25 e1 b7 bb 3a 65 58 3d 04 69 68 bd 8a 78 62 3d
       -0.005611556 0.052830912 -0.056740776 0.055290736
000330 85 00 7e bc 4c 7c 52 bd 80 b1 e5 bc 00 cb de bc
       -0.015503054 -0.05138807 -0.02803874 -0.027196407
000340 44 ff 8e bc 9a 17 74 bd a0 91 e4 3b 80 cd 8f ba
       -0.017455705 -0.05959282 0.0069753677 -0.0010971278
000350 3c df c0 bc 24 c9 d3 bc a6 05 11 3d f0 9f 5f 3d
       -0.023543946 -0.025852747 0.035405777 0.054595888
000360 8c 32 c7 bc a7 47 15 3d 29 a9 24 bd 34 1e 18 3b
       -0.024316095 0.036445286 -0.040200386 0.0023211362
000370 a6 f2 0b bd f1 82 72 bd bb 21 bd bb 80 28 14 3d
       -0.034166954 -0.059206907 -0.0057718433 0.036171436
000380 35 70 21 bc 4c 41 be 3c d2 d0 4a 3d 38 3e 90 bc
       -0.009853412 0.023224495 0.049515553 -0.017607793
000390 7b 40 1a 3d 15 e1 d5 3a 60 8f 3e 3c 10 61 0b 3b
       0.03765915 0.001631769 0.011630863 0.002126757
0003a0 88 50 21 3d 8e 55 1c bd ff f3 89 bc 72 2a 4e bd
       0.03938344 -0.03816753 -0.01683998 -0.050333448
0003b0 6c 74 0d bd f3 e9 96 3b e4 59 96 bb b6 51 37 3d
       -0.034534857 0.0046055256 -0.0045883525 0.04475566
0003c0 f6 a4 71 bd 66 fd 29 3d 9c 0e 84 3c 10 6e 86 bc
       -0.05899521 0.041501425 0.016120248 -0.016409904
0003d0 39 67 fd bc e5 9b 20 bd 26 a6 21 bc cc 6c 8e bc
       -0.03093301 -0.039211173 -0.009866273 -0.017385863
0003e0 43 38 53 bd e8 0f 6f 3c d8 7b 2c bc 08 c0 37 bd
       -0.051567327 0.014591195 -0.0105275735 -0.04486087
0003f0 fa a2 da 3c 2f 1a 40 bb 6a 9b 1c bd b1 56 20 3d
       0.026689041 -0.0029312482 -0.038234152 0.039145175

bias f4 [256]
000000 ff f8 02 bd 3c 29 fe bc 20 a8 44 bc 2e 19 3f bd
       -0.031975742 -0.031025521 -0.012002975 -0.046654873
000010 8b cf ae 3c 7e 58 41 3d 08 02 69 bc 3c a1 71 3d
       0.021339199 0.047203533 -0.014221676 0.058991656
000020 ea 1a c4 bc 6e 0e 16 3d 6a 2e 49 bd a8 32 4f bc
       -0.023938615 0.036634855 -0.04911653 -0.012646355
000030 3b 13 83 3d 66 bd 3c 3d 79 95 ea 3c a8 54 14 bb
       0.06400152 0.046079062 0.028635727 -0.0022633467
000040 92 c4 48 bb ad c2 81 3c e7 5d 44 3d 53 1d 2d 3d
       -0.0030634743 0.015839899 0.047941115 0.042264294
000050 22 90 6c 3d 3c 82 b8 3b 9f 43 aa bb f1 2e 08 bd
       0.057754643 0.0056307595 -0.0051960493 -0.03324789
000060 52 af 26 3c b3 aa c5 3c e2 f3 b9 3a e8 5b ad 3c
       0.010173636 0.024129247 0.0014187063 0.021161988
000070 b6 ea 93 3c 32 e7 29 bd e0 ab dd bc dc 35 b0 39
       0.018056255 -0.04148025 -0.027059495 0.00033609464
000080 fe 05 91 ba 44 68 7f bd bc c9 cf bc a5 98 59 bd
       -0.0011064408 -0.062355295 -0.02536475 -0.05312409
000090 30 94 fc bc 50 02 83 bb f2 47 49 bc 05 38 46 3d
       -0.03083238 -0.0039980784 -0.0122852195 0.04839327
0000a0 cb ae b9 bc ca e5 38 bc 0c 66 81 3c 3a ab 44 3d
       -0.022666356 -0.011285255 0.01579573 0.048014857
0000b0 8e 44 13 3c 5a 33 31 3d 45 32 bf 3c b6 22 54 3d
       0.008988513 0.043261863 0.0233394 0.051790915
0000c0 07 02 10 3c 0d 51 34 bd 3a 49 0c bd 0d c5 f6 bc
       0.008789546 -0.04402261 -0.03424952 -0.030123258
0000d0 70 3f c6 3c a0 78 19 3c 9a 1f 86 3c 80 e5 0c 3c
       0.024200171 0.009367138 0.01637249 0.008599639
0000e0 09 73 a7 3d 78 89 5c bc 80 90 44 3d fb 06 00 3d
       0.08176238 -0.0134605095 0.04798937 0.031256657
0000f0 56 99 d2 bc eb 7f 34 bd 92 3a b2 3b a5 4e 00 bc
       -0.025707882 -0.044067305 0.005439111 -0.00783125
000100 cc 91 53 bd fe bf 83 bc 64 96 31 3d 91 61 71 3c
       -0.051652715 -0.01608276 0.043356314 0.014732734
000110 a0 84 b1 bb 9a af 2a bd 15 f0 c0 39 f4 19 54 3d
       -0.0054174215 -0.041671373 0.0003679997 0.051782563
000120 81 dd 6f 3c 1a d1 f8 bc 64 31 38 3d b4 dc 74 bd
       0.014640213 -0.030373145 0.044968978 -0.05978079
000130 fc 38 9c 3c 54 db 7c bd 67 bb b9 3c b3 01 1c bd
       0.019070141 -0.061732605 0.022672368 -0.038087558
000140 ec f4 48 bd 40 8e 43 3d 0c 2f 3e bd a6 a1 62 bd
       -0.0490617 0.047743082 -0.046431586 -0.05532994
000150 fc 3f 45 3d 9a fb d0 bc a0 ce 66 3d d8 35 7b 3c
       0.048156723 -0.025510598 0.056349397 0.015332662
000160 06 13 8b 3d 4d ff 34 3d 1d dc 89 bd d1 98 91 bc
       0.06790738 0.044188786 -0.067314364 -0.017773064
000170 dd 6f f2 3c 3e 37 4c 3d 79 08 52 3d 3f b8 5f ba
       0.029594356 0.04985737 0.05127761 -0.000853423
000180 79 dd fa bc ed 0e 0d bd b2 d3 ea bc cc 51 68 bc
       -0.030623185 -0.034438062 -0.028665397 -0.014179658
000190 bc b5 48 3d 9a 02 6f bd a9 f1 48 3c d7 19 20 bc
       0.04900144 -0.05835209 0.0122646475 -0.009771786
0001a0 c0 4c 84 3d 10 05 a8 bc bd 32 d0 3c 89 ad 60 bd
       0.064599514 -0.020510226 0.025414819 -0.054852996
0001b0 43 27 a0 3c 44 1b ea bc dc a9 bc 3b 57 e4 18 3d
       0.019549971 -0.028577454 0.0057575535 0.037327137
0001c0 e6 80 6b 3d 42 4f 0b bd 3f 27 56 3d c0 a7 34 bc
       0.057495974 -0.034011133 0.05228352 -0.011026323
0001d0 37 08 e6 bc 67 85 2e 3d 50 0b 5c bc f0 c2 d4 bc
       -0.028080089 0.04260769 -0.0134304315 -0.02597186
0001e0 20 0b 0e 3d 53 a5 6d 3d 37 48 83 3c 53 d0 a6 bc
       0.03467858 0.058018994 0.016025646 -0.020363009
0001f0 c7 7a 09 bc 7b 49 64 bd d6 c5 3b bd 29 34 17 3d
       -0.008391089 -0.05573414 -0.045842968 0.03691498
000200 10 7c 64 3c 64 61 ee 3b 39 d2 24 3d b8 a6 44 3d
       0.013945594 0.0072747935 0.040239546 0.048010558
000210 e6 57 31 bd 98 0e c8 bc 5f 48 8a bd 88 94 d1 3c
       -0.043296717 -0.024421021 -0.06752085 0.02558352
000220 89 36 03 bc 88 41 88 3d b0 9c 28 3c 1b cf 6f bd
       -0.008008608 0.06653124 0.010291263 -0.05854712
000230 ca ef 23 3d 48 86 09 bd 93 4a 49 bd 30 2d d3 3c
       0.040023603 -0.033575326 -0.049143385 0.025778383
000240 f9 64 44 3d 1c a3 33 3d 24 a5 2b bd 98 3b 77 bd
       0.047947858 0.043856725 -0.041905537 -0.060359567
000250 d0 46 82 bd 0a 4d 7e 3b 10 66 36 bd 22 20 94 3c
       -0.06361163 0.0038803243 -0.044530928 0.018081728
000260 ac 71 56 bd 0f f2 16 3c be 4b 79 3c 70 ea d9 3b
       -0.0523545 0.009212985 0.015215812 0.0066502616
000270 bc 2d 9d bc 93 56 17 3d d2 b7 0f 3d 11 f2 dc 3c
       -0.019186847 0.036947798 0.035087414 0.026970895
000280 d8 a2 6c 3d fb 2a 25 3c d0 a0 82 3b 7f b6 2e 3d
       0.057772487 0.010081048 0.0039864555 0.04265451
000290 e3 4d 32 3d d9 1e de bb d2 91 39 3d 1d 7b 2b 3b
       0.04353131 -0.0067785797 0.04530508 0.002616591
0002a0 b1 c4 13 3d bb 86 6a bd e8 dc fe bc f3 e6 90 3d
       0.03607625 -0.057257395 -0.031111196 0.070753
0002b0 73 e2 22 bc c1 da 64 3d b4 04 55 3d cd 58 69 3d
       -0.009941685 0.055872682 0.05200644 0.056969453
0002c0 27 14 93 3b 82 e3 05 bd 1a 6d 0d 3c ae 3e 56 3d
       0.0044884863 -0.03268767 0.008631969 0.05230587
0002d0 f4 ad 0a bd 9f e6 54 3d 00 84 63 bd eb 89 29 3c
       -0.0338573 0.05197775 -0.055545807 0.010347824
0002e0 05 50 21 bd 32 b8 fa 3c 0d fb 40 3c 5a cd 0a 3d
       -0.039382953 0.03060541 0.011778605 0.033887245
0002f0 09 27 ab 3c 15 68 32 bd cb e8 5e bc e6 14 8a 3c
       0.020892637 -0.04355629 -0.013605307 0.016855668
000300 f8 97 11 3d fd 4f 40 bd ec 1e fe bc 10 c3 5b bd
       0.03554532 -0.046951283 -0.031020604 -0.053652823
000310 6c 27 34 3d 2d fd c9 bc ec 6e 01 3d 68 87 e6 3c
       0.043982908 -0.024656856 0.031599924 0.028140739
000320 b8 80 cb 3c ad f8 95 3d fe cd 47 3c 44 d0 5c 3d
       0.024841651 0.07322822 0.012195108 0.053909555
000330 1a c2 08 3d 90 c7 d0 3c 01 e1 39 bd 4b a1 b7 bc
       0.033388235 0.025485784 -0.045380596 -0.022415778
000340 09 7e 25 bd 89 94 c6 bc 24 a4 f2 3c e8 63 d9 3d
       -0.0404034 -0.024240749 0.029619284 0.10614759
000350 1d cd 58 bd 00 43 a1 bb e9 b9 22 3d 61 04 80 3d
       -0.052929986 -0.004921317 0.03972808 0.06250835
000360 e8 d0 01 3d c9 71 ee bc fa 22 2f 3c 23 dc b2 3c
       0.03169337 -0.029106991 0.010689491 0.021833485
000370 f4 fe 64 3d e4 84 11 3c 60 1a 1f bd 55 95 49 bc
       0.055907205 0.008881781 -0.038843513 -0.01230367
000380 c9 dd 14 3c 6b 28 70 3d 7d d9 16 3c 7d 3c 4e 3c
       0.009086081 0.058632296 0.009207127 0.012587664
000390 d2 db 85 3c 2b c9 45 bd 97 e6 08 bc 86 4c c5 3c
       0.01634017 -0.04828755 -0.008355758 0.02408434
0003a0 91 4a 28 3b e6 f7 01 bd ef 0d c0 3c f0 ca 26 3d
       0.002567921 -0.031730555 0.023444144 0.04072088
0003b0 31 07 d5 3c ea 0c 66 3d 6e e7 82 3d 9e 43 ca bc
       0.026004406 0.05616466 0.06391798 -0.024690446
0003c0 1d 08 05 3d df 82 4b 3d 7c 93 2d 3d a2 89 a3 3c
       0.03247844 0.049685355 0.04237698 0.01996309
0003d0 c5 7a fc b9 dc 65 00 3c 59 1b ac 3c da 15 62 bd
       -0.00048156656 0.007836785 0.021009134 -0.05519662
0003e0 d3 af 13 3d d8 5e a2 bc a9 bd 28 bd f3 32 6b 3d
       0.03605635 -0.019820616 -0.0411965 0.057421636
0003f0 2e a7 07 bd 60 b5 1f 3c 3d 71 b1 bc 88 d3 1c 3d
       -0.03311842 0.009747833 -0.021660442 0.03828767

weight f4 [64, 256]
000000 5d 1f 0c 3d 0d 0d 58 3d 91 19 ec 3c d6 c6 61 3b
       0.034209598 0.05274682 0.028820785 0.003445079
000010 81 36 5b 3d 38 1e 06 3d 44 be 46 3d 50 ae 7e bd
       0.053518776 0.032743663 0.048521295 -0.062177956
000020 14 be 40 3d 3a f2 91 3b 81 90 3f 3c 46 82 d0 3c
       0.047056273 0.0044539245 0.011692167 0.025452744
000030 68 73 a3 bc b0 f1 56 3d 7d 85 83 bc 14 c9 04 bd
       -0.01995249 0.052476585 -0.016054863 -0.032418326
000040 ee a9 09 3b 05 97 55 bd ba 53 23 3d b9 c9 79 3d
       0.0021005827 -0.052145977 0.03987477 0.060983393
000050 92 91 45 bd 09 7b 01 3c 72 d4 94 bc 99 b9 2d 3d
       -0.04823453 0.007902869 -0.018167708 0.042413328
000060 d1 e9 90 3b de 2a f2 bb 2c 22 2e bd a8 d3 71 bd
       0.0044224043 -0.007390364 -0.042513058 -0.05903974
000070 a5 ee 54 bc a5 d4 f0 3c d5 13 62 3d 23 7e 77 3c
       -0.01299635 0.029398272 0.055194695 0.015105757
000080 8b 39 2b bc ee aa 15 bd 4d d4 56 3a 6c b2 85 3d
       -0.010450731 -0.036539964 0.00081950874 0.06528172
000090 c8 51 d7 3c a8 f8 cf 3c b7 11 c5 3b 8e 8e 25 3d
       0.026284114 0.025387123 0.0060140747 0.040419154
0000a0 c7 1a 26 3d ce 4f 82 bc bc 6e 9c bc fd eb 44 bd
       0.04055288 -0.015907194 -0.019095771 -0.04807662
0000b0 2b 68 e1 3c 99 0b 80 bd 6f a6 3b bd 4a 0d c2 bc
       0.027515491 -0.06252212 -0.04581302 -0.023687977
0000c0 53 7d 1c bd a6 60 70 bc df 89 5f 3d c9 da 9a 3c
       -0.038205456 -0.01467148 0.054574843 0.018903153
0000d0 87 2a 84 3d 9b 27 8a bc 24 5c b4 bc 90 89 c4 3c
       0.06453424 -0.016864588 -0.022016592 0.023991376
0000e0 92 a4 38 3d 48 ed 26 3d 06 5a f4 3b 18 44 3c 3d
       0.04507882 0.040753633 0.0074570207 0.045963377
0000f0 ee bc b7 bc 27 02 4d bd 09 08 54 bd 6f dc ec 3c
       -0.022428956 -0.05005088 -0.051765475 0.028913705
000100 e5 ff 11 3d 3b 72 40 3c 58 e8 ac 3c 18 f9 b6 bb
       0.03564443 0.011745985 0.021106884 -0.0055838935
000110 f0 a7 65 bc be 3b 60 3d 3c dc 38 bd f0 69 8d 3d
       -0.01401709 0.054744475 -0.045131907 0.069049716
000120 77 0d 1b 3c b2 92 2b bd c2 4f 11 bd 58 29 a0 3c
       0.0094636595 -0.041887946 -0.035476454 0.019550964
000130 a6 de 1d 3c 10 3a 5a 3d 8f 29 6d bd 7e 37 74 3c
       0.009635603 0.05327803 -0.05790096 0.0149058085
000140 65 8e 8a 3c f7 8a 74 3d 24 fb 71 3d d2 8a 23 bd
       0.016913602 0.05970284 0.059077397 -0.03992731
000150 11 7b 44 bc 14 a6 f5 bc a6 b6 4d bc c6 95 1d 3d
       -0.011992232 -0.029986419 -0.012555754 0.038472913
000160 5b a4 db 3b d8 96 32 bd ca 85 cf 3c 48 9c cd bc
       0.0067029423 -0.043600887 0.02533235 -0.025098935
000170 8e af eb bb 99 a7 69 3d 15 cf ae bc e8 d7 4c 3d
       -0.0071925586 0.0570446 -0.021338979 0.05001059
000180 36 90 49 bc 8d 8d 07 3c bd 22 70 bd df 2c e9 3c
       -0.012302449 0.008273494 -0.05862688 0.028463779
000190 f3 5e 46 3d 65 33 8e 39 8d 4f 83 bd 7c 6d fc 3c
       0.048430394 0.00027122642 -0.064116575 0.030813925
0001a0 40 74 0c bc 78 ae a8 bc 91 4f 22 bc 4d 94 4b 3d
       -0.008572638 -0.020591006 -0.009906665 0.049701978
0001b0 66 07 27 3d c0 11 15 bb 8e d0 ba 3c 72 c3 f2 3c
       0.04077854 -0.0022746176 0.022804525 0.029634211
0001c0 98 49 b7 bc 70 b5 2c bd 55 bf ed 3c d6 d1 18 bd
       -0.02237396 -0.04216522 0.029021898 -0.03730949
0001d0 2a 85 9e 3b 50 57 7f 3c fb d4 82 3c 0f 27 de 3b
       0.0048376517 0.015584782 0.015970698 0.0067795585
0001e0 81 ad d9 bc 93 0e 02 bd e8 0f 58 3d f9 aa 52 bd
       -0.02657199 -0.03175218 0.052749544 -0.051432583
0001f0 98 da 15 3d 8d dd 29 3c 26 b1 61 3d 32 5b 78 3d
       0.03658542 0.010367763 0.055100583 0.060633846
000200 60 66 08 3b 8c c6 5e bd 49 cd af bc 82 7c 01 bd
       0.0020812973 -0.054388568 -0.021460192 -0.03161288
000210 e4 65 60 bd 64 a5 4d bd 62 4b 4f bd f4 71 0b 3d
       -0.05478467 -0.050206557 -0.050609 0.03404422
000220 2e e8 5d 3d a3 f7 cb 3a 25 e0 42 3d 8b 73 58 bd
       0.054176502 0.0015561472 0.047577042 -0.052844565
000230 1c 5c 86 3c 48 7e 35 3d 5f 45 d2 bc d8 48 52 bd
       0.016401343 0.044309884 -0.025667844 -0.051339
000240 33 96 7d 3a b5 7f 0b 3d c2 3b fd bc 62 50 18 bb
       0.00096735655 0.034057338 -0.030912284 -0.0023241271
000250 de 80 28 3d 60 47 bd 3c de ff 98 bc 18 3f 1a bd
       0.041138522 0.023105323 -0.018676694 -0.037657827
000260 fd ec dd 3b ae a8 5e 3c 1c 85 56 bc e7 05 52 3d
       0.006772636 0.013590021 -0.013093259 0.05127516
000270 e3 9d 64 3b d0 01 b7 3d dc 99 1c bd c8 58 f2 bc
       0.0034884147 0.089358926 -0.03823267 -0.02958335
000280 fe c4 0f bd 65 e8 09 3d 5c f1 4f 3d 6e d5 7a 3d
       -0.035099976 0.033668894 0.050767288 0.0612387
000290 1b 06 62 3d db 76 29 3b 7c 29 50 3d a1 a9 4b bd
       0.055181604 0.0025858197 0.050820813 -0.049722318
0002a0 af 97 ac 3a 14 2c 92 bb a2 e0 2b 3c 6d c9 81 3d
       0.0013167764 -0.004460821 0.010490568 0.06337247
0002b0 fa 66 cb 3c e6 bf 1f 3d 88 59 23 3d bc b4 7f 3d
       0.024829376 0.039001368 0.039880306 0.06242822
0002c0 9c 49 1e 3d d2 f9 94 3c 5a 39 05 bd 9d 1c 09 3d
       0.038644418 0.01818553 -0.032525398 0.033474553
0002d0 62 88 7d bd ba 7e 2c 3d fb 0a 1b bb 23 b1 28 3d
       -0.061897643 0.042113043 -0.0023657668 0.041184556
0002e0 96 e8 46 bc f7 3b ef 3c fd 91 5d bc 93 8a ec 3c
       -0.012140414 0.029203398 -0.013523576 0.028874671
0002f0 d6 4d 22 bc 90 6c ce bc 2b 26 57 bd 42 ff 7d 3c
       -0.009906253 -0.025198251 -0.052526634 0.015502753
000300 c9 82 5f bd 12 f3 ae 3b cc 6b 5d bd a4 1c e3 bc
       -0.054568086 0.005339035 -0.05405788 -0.027723618
000310 f6 47 12 3d 1e 1c a9 3c da 0b ef bc 44 a2 b4 bc
       0.03571316 0.02064329 -0.029180456 -0.02205003
000320 80 19 3f 3d 58 25 5c 3d 13 30 61 3d 02 eb 0c 3c
       0.046655178 0.05374655 0.054977488 0.008600952
000330 19 9c 75 3c 64 d7 68 38 32 bf ef bc 70 c9 10 3b
       0.01499083 5.551371e-05 -0.029265974 0.0022092722
000340 87 8b 46 3c 15 23 c1 bb 72 59 15 bd 63 54 7f 3d
       0.012118227 -0.0058940747 -0.036462255 0.062336337
000350 2b c3 75 bc 75 b6 1d bd ea 97 2d bd 0c 0a 21 3d
       -0.015000145 -0.038504083 -0.042381205 0.039316222
000360 74 97 d6 3c 30 ff 07 bd e4 e1 94 bb 02 cf fe 3c
       0.026195265 -0.03320235 -0.00454353 0.031104568
000370 bf a6 cc 3c b8 de 0f bd 53 46 2c 3c 66 d4 c0 3c
       0.024981854 -0.03512451 0.0105148135 0.02353878
000380 52 7d 78 3c ba f0 c7 bb 85 1c 83 3c e4 89 14 3d
       0.015166597 -0.006101695 0.01600481 0.036264315
000390 c6 56 92 b8 69 cf 66 bd f2 d9 94 bb 78 b5 61 bb
       -6.977985e-05 -0.056350145 -0.0045425827 -0.003444044
0003a0 9a c0 24 bd 90 25 01 3c bd 43 8f ba 6e 0c 5b bd
       -0.04022274 0.007882491 -0.0010930222 -0.05347865
0003b0 5a b7 bb bc bc 60 3b bd 9c 1f 53 bd 85 a7 ab 3c
       -0.022914577 -0.04574655 -0.051543817 0.020953903
0003c0 6b 00 64 bc d1 c6 57 3d d8 2c 89 bc 99 78 ea bc
       -0.013916115 0.05267984 -0.016745016 -0.028621959
0003d0 66 f3 18 3c 14 fd c9 39 fb 73 38 bc bc 50 79 3c
       0.009335374 0.00038526265 -0.011258121 0.0152170025
0003e0 d4 06 81 bc d8 6a 0b bc 1f 30 0a 3d a1 2c 7b ba
       -0.015750326 -0.00850936 0.033737298 -0.00095815404
0003f0 80 9c 34 ba ff 87 c6 bb 06 05 9a bc 75 c3 d3 bc
       -0.00068897754 -0.0060586925 -0.018801223 -0.025850037

bias f4 [64]
000000 0c e8 01 3d c1 c1 52 bc df 40 b5 39 9d ae 27 3b
       0.031715438 -0.012863577 0.00034571343 0.0025586255
000010 1b e3 14 3d 62 e1 3a bc 63 d1 a1 bc 25 e3 7a bc
       0.036349397 -0.0114062745 -0.019753164 -0.015312945
000020 bc 59 f4 3b a4 b4 18 bd 72 66 83 bd c7 be 70 bc
       0.0074569862 -0.037281647 -0.06416024 -0.014693922
000030 e2 42 61 3c af d6 0d bc b5 09 14 3d 8c da c0 3c
       0.013748856 -0.008657142 0.03614207 0.023541711
000040 36 ec 4d bc 2c 96 34 3c 38 37 8b 3d 23 c5 4c bd
       -0.012568524 0.011022132 0.067976415 -0.04999269
000050 d7 49 aa 3b c1 bf 85 3d 3d b8 88 3d c5 98 34 bd
       0.0051967907 0.06530715 0.06675766 -0.044091005
000060 62 65 84 bd 74 18 03 bc 05 e2 2f bc 33 81 38 3d
       -0.0646465 -0.008001436 -0.01073504 0.04504509
000070 00 33 17 3d 58 81 ed bc ba e6 ee 3c b8 ee 96 bc
       0.03691387 -0.02899234 0.029162753 -0.018424377
000080 41 1c e7 3c 7a 11 53 3c 34 be 56 bd 80 e4 45 3c
       0.028211715 0.012882585 -0.052427486 0.012078404
000090 25 96 31 3d a3 92 84 bc 1d 23 6b 3c ec 2c 10 bd
       0.04335608 -0.016183203 0.014351633 -0.03519909
0000a0 b7 50 26 bd fe 14 30 bd 52 44 16 3c a0 c4 4a 3c
       -0.04060432 -0.04298877 0.009171562 0.012375981
0000b0 ea ce 9c bc 14 e7 70 3d 3a e1 5d 3d 94 2e d6 3c
       -0.019141633 0.058814123 0.05416987 0.026145257
0000c0 46 b6 fb bc 00 f3 48 3d a5 7e fc bc f2 2a e7 3c
       -0.030726563 0.049059868 -0.030822108 0.02821872
0000d0 06 5e b8 bc 8f 6b 46 3d 2a 78 14 3c c2 8d 39 bd
       -0.022505771 0.04844242 0.0090618525 -0.045301206
0000e0 4f 2b 15 bd 55 e1 78 3c c3 bb 08 3d 7f f5 7f 3d
       -0.036418255 0.015190442 0.03338219 0.062489983
0000f0 c5 07 1c bc 2c d8 3b bc 16 bb e5 bc 64 5e 65 bd
       -0.009523337 -0.011465114 -0.028043311 -0.05599822

weight f4 [256, 64]
000000 38 8a b7 3d 5a 9b 8e 3d 8a 77 9f bd 50 be 6f 3c
       0.0896191 0.06963225 -0.07786472 0.014632776
000010 f0 2e 2d 3c 4a f5 95 3d 0a ea df 3d 78 cf 75 bd
       0.010570273 0.07322176 0.10933311 -0.06001231
000020 48 9d e5 3d 20 b2 7a 3d 78 28 3a bd 00 dd da ba
       0.1121164 0.06120503 -0.04544875 -0.0016697943
000030 a0 48 d1 bb 30 f6 0b bc e0 d1 d2 bc 50 f2 e2 bd
       -0.0063868314 -0.008542582 -0.025734842 -0.11081374
000040 d8 9a aa bd 8e b0 b0 3d 9e 6f 98 3d be d5 82 bd
       -0.08330315 0.08627425 0.07443164 -0.06388424
000050 8c 01 f1 bd 2a 1d 83 3d f2 e9 bb 3d c0 23 01 3b
       -0.11767873 0.06402047 0.09175481 0.0019705147
000060 d4 53 4d 3d 20 d7 73 3d ce e0 a1 3d 18 01 9a 3c
       0.050128773 0.05953133 0.07904206 0.01879935
000070 94 ed bb 3d 10 5c 1d 3c 96 82 d0 3d 5c 37 ff bd
       0.09176174 0.009604469 0.10181157 -0.12461731
000080 50 96 b5 3c 20 06 ab 3d c4 70 42 3d 28 c9 c8 3d
       0.022166401 0.083507776 0.047470823 0.098039925
000090 30 1b d6 3c 40 8b 4d bd 10 b3 6b 3c ec 6b 82 3d
       0.02613601 -0.050181627 0.014385954 0.06368241
0000a0 46 02 bd bd 0a da d1 bd 70 d4 55 bd 30 7c dc 3c
       -0.09228949 -0.10246666 -0.05220455 0.026914686
0000b0 10 79 55 3c de fe ce bd d8 06 c3 3d 70 f0 fa 3c
       0.013029352 -0.10107206 0.0952279 0.030632228
0000c0 0c 56 5f bd 7c bf 5a bd b0 8b 30 bc f4 10 75 bd
       -0.05452542 -0.05340527 -0.010775492 -0.05983062
0000d0 30 be b7 3c 5e f0 c0 bd 2c bc f4 bd e8 8d bf 3c
       0.022429556 -0.094208464 -0.119499534 0.023383096
0000e0 40 3b e9 3d 6a e3 c6 bd 9a 1d a3 3d f2 7b de 3d
       0.11388254 -0.097113445 0.079646304 0.108634844
0000f0 7c 67 de bd 90 f2 6e bc 0a d3 b4 bd e0 64 cd 3c
       -0.10859582 -0.014584199 -0.08829315 0.025072515
000100 d5 8b a0 3c c3 51 74 bd bb 4b 18 bd e6 c0 89 3d
       0.019597927 -0.059648287 -0.037181597 0.067262456
000110 7e 63 ac bc d3 19 03 be 35 31 05 3d 52 ad e0 bd
       -0.021043535 -0.1280282 0.03251763 -0.10970558
000120 a7 a5 2f bd d7 71 09 bd 29 97 3a bd 91 ce ec 3c
       -0.042882588 -0.03355583 -0.045554314 0.028907092
000130 3f db 45 bd 7d 45 7e 3d 6c c9 a8 3d db 12 68 3d
       -0.048304792 0.062077988 0.08241543 0.056658607
000140 a0 45 f3 3d 67 32 1e 3c f9 0a e6 bd 25 36 9a bd
       0.11878514 0.009655572 -0.112325616 -0.075298585
000150 3d 87 c5 3d c7 fb 23 bd 58 33 b1 bd 4a f1 32 bd
       0.09644935 -0.040035035 -0.08652371 -0.043687142
000160 1d 70 4d 3d 92 7c 54 3d 19 f0 22 3d 54 9b 11 3d
       0.050155748 0.051876612 0.039779756 0.035548523
000170 c0 07 02 3d ea f8 68 bc 14 75 ef bd e2 27 f2 3d
       0.031745672 -0.014219502 -0.11692253 0.11824013
000180 54 4a 61 bd 42 10 b8 bc 58 04 ee bd 1b ed a5 bc
       -0.055002525 -0.02246869 -0.11621922 -0.020254662
000190 9e 94 fc 3d 61 28 bd bd 33 6b fd 3c 34 b9 5d 3d
       0.12333034 -0.09236217 0.030934906 0.0541317
0001a0 cd 76 8e 3d 7c 94 35 3d 9a 9a 2d 3c 1b 0d e3 bd
       0.06956253 0.04433106 0.010595942 -0.11086484
0001b0 37 db e4 bb 64 8e 60 bc 68 db e0 3d 6f 7e a5 3d
       -0.0069841403 -0.013705824 0.109793484 0.08080756
0001c0 b3 da 40 3d 3f a0 d9 bc 3f 0f cf bd dc 2e ba bd
       0.047083568 -0.02656567 -0.1011033 -0.09090969
0001d0 fe f9 f2 bd de 9e 9f bd fc fa a3 3c 3d 19 8e 3d
       -0.118640885 -0.077939734 0.02001714 0.069384076
0001e0 d0 bd d0 3c aa 8e a0 3c 18 15 be bd fd b1 07 bc
       0.025481135 0.019599278 -0.09281367 -0.008282182
0001f0 f7 66 a3 3d 9b 0f cc bd 41 34 f5 3d b8 fe f9 bd
       0.07978623 -0.09963914 0.11972857 -0.12206787
000200 92 59 a3 bd e6 ef 08 bd 8b 45 29 3d be 43 9e bd
       -0.079760686 -0.03343191 0.041326087 -0.077277645
000210 57 2a c5 3d 3f e2 a5 bd 35 82 6d bc 29 3e b3 bd
       0.09627216 -0.08099794 -0.014496376 -0.087520905
000220 f9 7a e0 bd 37 3f b7 3c 4b ab e8 3d c7 86 aa bd
       -0.10960955 0.02236901 0.113607965 -0.08326488
000230 a7 a1 91 3b ad 0a 85 3d 4a 10 47 bd c9 a6 6d 3d
       0.0044443193 0.06496177 -0.04859952 0.058020387
000240 e8 f3 5d bd 38 b3 96 bd eb 2b da 3d 57 8d ea bd
       -0.054187685 -0.07358402 0.10652908 -0.1145274
000250 31 b9 f5 bd ac a3 a5 bd 3d 79 af bd 26 a7 e7 3d
       -0.11998213 -0.080878586 -0.08568046 0.11311178
000260 3e 92 50 bd 54 17 ce bd 9d e6 ad 3d 6d 32 c9 3c
       -0.050920717 -0.10063043 0.084912516 0.024560178
000270 29 34 00 be e3 9a 4b bd b1 2b cb 3d 13 91 9e 3d
       -0.12519898 -0.04970826 0.09920443 0.077425145
000280 3a 6a f5 3d ac 3f 6b bd 8b f3 7b 3d 58 9e 1e 3d
       0.11983152 -0.05743377 0.061511558 0.038725227
000290 d1 28 79 3d 12 b2 ed 3d 49 8f d2 bd 4d 2f f7 bd
       0.06082994 0.1160623 -0.10281236 -0.12069569
0002a0 f3 21 ab 3d c8 31 ac 3c 20 85 04 3e 25 81 7c 3c
       0.08356085 0.021019831 0.12941408 0.01541165
0002b0 14 e8 44 3d 20 3c 50 bd e8 cc 4d bd 1e ec cf 3d
       0.04807289 -0.05083859 -0.050244242 0.10152458
0002c0 93 09 d0 3d ec d4 b5 bd 44 4e c8 3d 24 5e a7 3d
       0.10158076 -0.08878502 0.09780553 0.08172253
0002d0 42 fa ae 3d 4f 90 b0 bd 2d 2e ae 3d a8 63 33 bd
       0.08543827 -0.08621275 0.08504901 -0.04379621
0002e0 51 88 cd 3c 33 86 62 bd 4d 93 6e bd b8 08 ef bd
       0.025089415 -0.055303764 -0.058245946 -0.11671585
0002f0 80 4e d5 3d 97 7d 1e 3d 9f f2 d7 bd 50 6e 70 bd
       0.10415363 0.03869399 -0.10544323 -0.058698952
000300 cc f5 41 bd 68 95 33 3d e4 4d 6f bd 2c a1 33 bd
       -0.04735355 0.043843657 -0.05842389 -0.043854877
000310 0c 5f e5 bd 16 93 b5 bd ae 33 a4 3d a0 79 10 3c
       -0.111997694 -0.08865945 0.080176696 0.00881806
000320 20 3a 87 3d d0 51 2d bd 68 32 c6 3c 00 f5 95 3d
       0.06602883 -0.04231435 0.024193957 0.07322121
000330 c8 f9 a0 3c 64 bc e0 bd a4 60 3c bd 5c 00 bb 3d
       0.019650355 -0.10973433 -0.0459906 0.09130928
000340 18 73 f9 3d 2c c5 67 bd 24 c1 f5 3d 0c 0e f8 3d
       0.121801555 -0.056584522 0.11999729 0.12112054
000350 a0 02 65 bc a0 04 c1 3c d4 91 5f bd 54 a4 d4 3d
       -0.013977677 0.023561776 -0.054582432 0.103829056
000360 80 f7 79 bd 44 92 54 3d a6 8e dc bd d8 5f 60 3d
       -0.06102705 0.051897302 -0.107693955 0.054778904
000370 6c 33 d0 3d 60 18 76 bd 90 df c1 3c ea 85 f5 bd
       0.10166058 -0.06008184 0.023666173 -0.11988433
000380 c8 d8 ce bd e6 92 d7 3d c4 29 7c bd 3c 80 32 3d
       -0.100999415 0.105260655 -0.06156327 0.043579325
000390 74 44 80 3d 34 75 b5 3d 68 61 61 bd ec 46 ca bd
       0.062630564 0.08860245 -0.055024534 -0.098768085
0003a0 92 b8 e5 bd 1c fc 69 3d 3a 55 bd 3d 78 a5 be 3c
       -0.112168446 0.057125196 0.09244771 0.023272261
0003b0 00 54 80 bc 96 17 fd 3d 00 17 e2 bd 92 76 95 bd
       -0.015665054 0.12358014 -0.11039543 -0.07298006
0003c0 4a 5b b8 bd 00 4e d2 3b 10 c0 9f bd 66 f2 93 3d
       -0.09001787 0.0064179897 -0.07800305 0.07223968
0003d0 58 3c 0d 3d ac e0 b3 3d 4e 09 ac 3d 30 89 71 3d
       0.034481376 0.08783087 0.08400212 0.058968723
0003e0 76 47 ea 3d 70 81 6f bc 80 fe ef 3c 9e 70 e9 3d
       0.11439411 -0.014618263 0.02929616 0.11398433
0003f0 24 3b d8 3d 58 2e 01 3d c4 4c 8f 3d 60 e2 b2 3d
       0.10558155 0.031538337 0.06997064 0.08734584
