mlruns/633170894285303564/98ce75cf16464fbeab050d579ea1cab8/artifacts/model/data/model.pth (torch, 953969 bytes, 24 tensors)

weight f4 [256, 3]
000000 56 1a 05 bf 89 ab ce be d1 ed c8 be 3b 5c 0d 3d
       -0.5199331 -0.40365246 -0.3924394 0.034511786
000010 61 43 dd be 7f ea 14 3e 48 20 eb 3e f1 9d e5 3d
       -0.4321547 0.14542578 0.45923066 0.112117656
000020 d7 cf c2 bd 66 e0 61 3e 0a b0 41 3e c7 a8 14 3f
       -0.095122986 0.22058257 0.1891481 0.58070034
000030 6c a1 b8 be 2f 65 06 3f e7 cb d2 be 2d 05 3e 3e
       -0.36060655 0.52498144 -0.4117119 0.18556662
000040 87 07 c8 be 43 2e a1 3e 6e 3e f5 3b 32 44 b1 bb
       -0.39068243 0.31480607 0.007484249 -0.005409741
000050 c2 40 0d 3f b6 b9 b3 3e e8 2a ff 3e df 9b 1d be
       0.5517694 0.35102624 0.49837422 -0.15391491
000060 12 d0 22 3e 3b f9 11 3f 8b a6 a0 3e 41 12 e3 be
       0.15899685 0.5702092 0.31377062 -0.44349864
000070 f0 5e 18 be a9 57 16 be bb 80 1a 3e c3 70 1e 3e
       -0.14879966 -0.14681877 0.1508817 0.15472703
000080 4d 65 0a bf 59 a6 e8 be c8 98 9d be b1 4a b7 be
       -0.5406082 -0.45439413 -0.30780625 -0.35799173
000090 09 b2 69 bd 27 1f cc be c3 01 a1 3d 54 c3 af bd
       -0.057054553 -0.39867517 0.07861664 -0.08582178
0000a0 70 01 12 bf 8a e4 21 3e bd c0 6d be 8c 7c 80 be
       -0.57033443 0.15809837 -0.23218055 -0.25095022
0000b0 d6 d6 c5 be 68 31 88 be bb 3a 33 3e 93 1e 4a 3e
       -0.3864047 -0.26600194 0.17502873 0.19738226
0000c0 58 00 6a 3e 3b db 0d 3f 08 f6 13 3f 54 38 d1 3e
       0.22851694 0.55412644 0.5779729 0.40863287
0000d0 e2 7d 6a 3e d1 b5 98 be f0 20 bf 3e 0d bb 0d bf
       0.22899583 -0.29826215 0.37329817 -0.5536354
0000e0 21 50 02 3e 06 ce ed bd e0 45 bc 3e e9 83 9d bc
       0.12725879 -0.116115615 0.3677206 -0.019227939
0000f0 c3 23 cc 3e 5b 02 56 3d 78 9b 99 bd 2d 6d 16 bf
       0.39871034 0.05224834 -0.075003564 -0.5876034
000100 69 6b e2 be a7 6c d5 be 11 c0 a1 bd 45 3f 81 3e
       -0.44222572 -0.41684458 -0.07897962 0.25243583
000110 33 89 62 bd e9 aa ae 3e 6d 2b e7 3e ed de 03 bf
       -0.055306625 0.3411477 0.4515032 -0.5151203
000120 e5 82 01 bf 79 61 e5 3e 53 a3 07 3f 41 c4 8a be
       -0.50590354 0.44800928 0.5298359 -0.27102855
000130 5b c8 84 3e 9a ba a3 3e 97 77 4c be 6c 9a d4 3e
       0.2593411 0.31978303 -0.19967495 0.41524065
000140 bf 7b de be 99 2b d6 3d b9 32 86 3e a5 8f a8 3e
       -0.43453786 0.10457534 0.26210573 0.32922092
000150 9f ce 54 3e 58 bf dc bc b7 93 4f 3e a4 26 76 3e
       0.20781945 -0.026946709 0.20271192 0.24038178
000160 ae 23 cc be 91 65 4f 3e 83 ad 67 be 3d 1e 53 bd
       -0.3987097 0.20253588 -0.22624783 -0.05154251
000170 c3 01 b4 3e 14 bb 0f bf 5d 7c 07 3f 55 6e 8a be
       0.35157594 -0.56144834 0.5292414 -0.27037302
000180 d4 7f 90 3e c1 5d 07 bf c6 2c 8d 3e 91 c2 d2 be
       0.28222525 -0.5287743 0.27573222 -0.41164067
000190 dc 78 0b 3e c4 41 ff be 77 2a 02 3f cc d4 bb 3d
       0.13620323 -0.49854863 0.50846046 0.09171447
0001a0 32 be 73 be 26 07 d3 3b e2 c7 68 be a4 bc e3 3d
       -0.23803023 0.006440061 -0.22732499 0.11119965
0001b0 1a 10 17 bf 06 6a a5 be f4 50 c3 be 96 cf a4 3e
       -0.59008944 -0.32307452 -0.381477 0.32189626
0001c0 1e a6 03 bf 6a b1 38 3e e8 7f 9f 3e 89 26 16 3e
       -0.5142535 0.18036428 0.31152272 0.14663137
0001d0 2c c3 57 bd 85 f8 0c be 14 1a e1 3d 2a cc 2d 3c
       -0.052676365 -0.13766678 0.10991302 0.010607759
0001e0 10 07 00 bd fc 7a b7 3e ef 74 cf bc ec bb 8e be
       -0.031256735 0.35836017 -0.025324313 -0.27877748
0001f0 f8 15 48 be 93 81 0f bf c3 31 51 be b0 de e1 3e
       -0.1953963 -0.5605709 -0.20429139 0.4411521
000200 fc c1 9e be 9a 29 d5 bd ff cd a5 3d 6e ce 29 3e
       -0.31007373 -0.104083255 0.08095931 0.16582653
000210 06 0c f1 3e 46 12 90 3e a9 d3 04 bf b6 9f f0 be
       0.47079486 0.28138942 -0.5188547 -0.4699685
000220 10 81 6d 3e ae 4e 13 bf 39 08 79 3c 6c 1f ff be
       0.23193765 -0.5754193 0.015199714 -0.4982866
000230 9a d2 69 3e 84 72 0a 3f d0 e6 cb 3d 2c 75 85 be
       0.22834244 0.54080987 0.09956133 -0.26065958
000240 c1 61 a5 bc 37 27 ef 3e c8 4b ea 3d 11 37 0f be
       -0.020188214 0.46709606 0.114402354 -0.1398585
000250 86 fc b5 be e7 3e 31 bd 2f 5f 0f 3e e6 97 08 bf
       -0.35544223 -0.04327288 0.14001153 -0.5335678
000260 19 3f 6c bd 47 80 16 3e 5e 70 fe bd 36 c1 5d 3e
       -0.057677362 0.14697371 -0.12423776 0.21655735
000270 49 c7 99 be 71 d1 5d 3e e5 ac 86 3b 86 aa b0 be
       -0.30034855 0.21661927 0.004109966 -0.345051
000280 70 46 85 3e 30 34 63 3e 3b 97 12 3f 94 e2 67 be
       0.26030302 0.22187877 0.5726201 -0.22645026
000290 57 4f ae 3e 5e b3 ea bd 1d d1 e6 be 41 65 b5 be
       0.34044906 -0.11459993 -0.45081416 -0.35428813
0002a0 69 4f db 3e b1 82 89 3e 37 59 b4 be 4f 30 e2 be
       0.42834023 0.26857522 -0.35224316 -0.44177482
0002b0 eb ad e4 3d 56 04 ae be d4 07 03 3f 69 b4 af be
       0.11165985 -0.33987683 0.5118382 -0.3431733
0002c0 1f e2 37 3e fa 29 8c be 25 8f 98 be 3d 9c 92 be
       0.17957352 -0.27375776 -0.2979671 -0.28634825
0002d0 f2 29 d2 be dd 27 93 be e6 c8 26 3e 4d 93 aa bd
       -0.41047627 -0.2874135 0.16287574 -0.08328877
0002e0 57 3d b6 3e d4 74 ff be fa d5 0c 3f e4 0a 10 be
       0.35593674 -0.4989382 0.55014 -0.14066654
0002f0 3f 74 a9 3e 8b 37 ad be f2 b4 86 3e 30 33 72 39
       0.330965 -0.33831438 0.26309925 0.00023097987
000300 39 8d 6c be ec 88 96 be b2 9d e2 3d 7a da 1f be
       -0.23100747 -0.29401338 0.11065234 -0.15610686
000310 c3 9f f7 bd ef 2a 44 be d6 2c 11 bf 94 a0 0b 3f
       -0.12091019 -0.19157003 -0.5670904 0.545419
000320 f2 91 07 bf 61 18 ab 3b 59 6b 22 3e a6 9f b7 be
       -0.5295707 0.005221412 0.15861262 -0.3586399
000330 21 7a 65 3e 6d 31 00 3f 59 65 20 3e 03 c6 04 3f
       0.2240987 0.5007542 0.15663661 0.5186464
000340 41 89 0a 3f 9a 6f fc bd 32 dd dc be 85 1d ad 3e
       0.5411568 -0.12325974 -0.4313751 0.33811584
000350 8b 0f fb 3e 1f 5d b3 3d 59 11 13 3f a3 93 cb be
       0.49035296 0.08757996 0.57448345 -0.39761075
000360 29 29 e4 3e 62 69 f1 3e 1a 47 fb bd 98 a6 05 bf
       0.44562653 0.47150713 -0.12269421 -0.52207327
000370 25 b2 23 be 78 4a 22 3d 80 ca bb 3e 25 c0 89 be
       -0.15985925 0.0396218 0.36677933 -0.26904407
000380 19 9d b2 3e ea 27 d4 be 37 b3 89 bd 16 05 a4 be
       0.3488548 -0.41436702 -0.06723636 -0.3203513
000390 81 cc d1 3e ad ea 9c bd 40 24 0c bf dd f6 08 bf
       0.40976337 -0.07661948 -0.54742813 -0.53501683
0003a0 bf 01 6b bc a1 66 80 be 75 fb 0f 3f 0c 27 67 be
       -0.014343678 -0.250783 0.5624307 -0.22573489
0003b0 b4 2c d1 be 36 c7 53 3e be e3 99 be 54 02 d0 bd
       -0.40854418 0.20681462 -0.30056566 -0.10156694
0003c0 8a d4 cf be 96 5e c4 be f8 42 01 3e 82 c8 f0 3e
       -0.40591842 -0.38353413 0.12623203 0.47027975
0003d0 81 1a 0d 3e 18 76 4d 3e 75 12 81 3e bf 13 10 3e
       0.13779642 0.2006458 0.25209394 0.14070033
0003e0 f6 87 89 be 68 06 2d 3c 3d 74 92 bd 90 34 30 be
       -0.26861542 0.010560609 -0.07151077 -0.17207551
0003f0 d5 bc 69 3e ec aa 95 be 60 d4 cb bd 40 00 2d 3e
       0.2282594 -0.29231966 -0.09952617 0.16894627

bias f4 [256]
000000 a0 d2 a4 3d 1d 23 ad 3e 95 d3 97 bd e3 99 1c 3e
       0.08047986 0.33815852 -0.07413403 0.15293078
000010 ca fa 6d be 19 d6 ed 3c 0e 5b 8c 3b 72 53 e2 be
       -0.232402 0.029032754 0.0042833155 -0.4420429
000020 d0 1d 86 be 35 37 62 be da 58 b7 be c3 b0 9c bd
       -0.2619462 -0.22091372 -0.35809976 -0.07650902
000030 fa 8e 9d be bf 99 ab be 4c 1c f9 3e 48 70 11 bf
       -0.30773145 -0.33515736 0.486544 -0.5681195
000040 e5 6c 7b be fe 71 00 3f 0d 31 10 be 12 f4 0a 3f
       -0.24553259 0.5017394 -0.14081211 0.5427867
000050 6d 9b e7 be ee 2c 65 be 05 86 fc be 0d 2b 2b 3d
       -0.45235768 -0.2238042 -0.49321 0.041789103
000060 ec 80 e3 bd 00 f8 5a 3e 6f d3 19 3d b6 d4 11 bf
       -0.11108574 0.21383667 0.037555154 -0.56965196
000070 ba 68 4f 3e 5b 39 b7 3e 9a 97 d2 3e 90 2b 5c be
       0.20254794 0.35785946 0.41131288 -0.21500993
000080 0a 17 00 3f bb dc bf be 33 14 07 bf a2 e0 d1 bd
       0.50035155 -0.3747309 -0.52765197 -0.102479234
000090 03 40 cb be 37 63 ce 3e 48 d8 0a bd 94 d7 a4 3e
       -0.39697275 0.4031007 -0.033897668 0.32195723
0000a0 57 05 b1 3e 97 7f dd 3e 91 80 47 3b 7c ed 9e 3c
       0.34574386 0.43261406 0.0030441622 0.01940035
0000b0 99 94 8a bd 6e b4 03 3f 36 e0 c5 be 84 72 a5 be
       -0.06766624 0.5144719 -0.38647622 -0.3231393
0000c0 74 e2 20 be 79 f7 9d be e7 2f 0e bf 54 cd 3b be
       -0.15711385 -0.3085287 -0.55541843 -0.18340045
0000d0 59 50 03 3f d6 f3 10 bf 14 94 99 3d 52 de e3 3c
       0.51294476 -0.56622064 0.07498947 0.027815972
0000e0 09 1e bd 3e a7 ea 86 be 32 5f 4a 3e 0f b3 8e be
       0.36936978 -0.263509 0.19762877 -0.27870986
0000f0 ae f0 45 3c 75 95 ba bd 1d bc 5b bd 85 91 9e be
       0.012081308 -0.09110538 -0.053646196 -0.30970398
000100 e7 9d 37 be 45 4a a1 bc d5 96 a8 3d b0 60 5b be
       -0.17931329 -0.019688735 0.08231894 -0.21423602
000110 eb b6 ab be d6 e1 15 3f 0d b2 16 be ab 4a 0a 3f
       -0.33537993 0.58547723 -0.14716358 0.54020184
000120 23 bf e8 3e a6 f8 83 bd 15 a8 ed bd 71 19 0a 3f
       0.45458326 -0.0644391 -0.11604325 0.5394507
000130 74 b4 53 3e bc 2a 09 3f fa 88 0b 3f e6 23 3c 3e
       0.20674306 0.5358083 0.54505885 0.18373069
000140 af 4f fa 3e 84 58 44 bd 95 57 17 3e c1 36 16 3e
       0.4888892 -0.047935978 0.14779504 0.14669324
000150 1d 44 03 be 11 85 0c 3f 4b 34 43 be 19 73 bc be
       -0.12818952 0.54890543 -0.19062917 -0.36806563
000160 8a 29 d1 be 22 f4 0b 3e 33 42 7b 3e 30 8b 92 3d
       -0.40852004 0.13667348 0.24536972 0.07155454
000170 5b 8a 9e 3e 60 82 a6 3e 40 af c6 be 8a 5d f2 3c
       0.30964932 0.32521343 -0.3880558 0.029585619
000180 87 0d 0c 3e db 6f 12 3f 45 43 7c 3e 92 20 82 3e
       0.13677035 0.5720193 0.24635036 0.25415474
000190 8e ec d1 be fd f2 e6 3e f8 99 01 3f d6 4e 69 bd
       -0.4100079 0.4510726 0.5062556 -0.05695995
0001a0 85 38 0f 3f 84 6f 0c bf 48 8f 3c be 59 84 4e be
       0.55945617 -0.5485766 -0.18414032 -0.20167674
0001b0 95 97 9d 3e 5a 82 c0 3e 04 20 08 bf 23 0e ea be
       0.3077971 0.3759945 -0.5317385 -0.4571391
0001c0 2d 84 b0 be 65 c5 c2 3e 0b b0 91 be 7a 15 0b 3f
       -0.34475842 0.38041225 -0.28454623 0.54329646
0001d0 dc 04 f8 be ee c9 a7 3e 5a 0d 9e be f6 4d 01 3f
       -0.48441207 0.32771248 -0.3086956 0.50509584
0001e0 9f 7e db be 7a 72 97 be 5f 27 62 3e ae 7d 02 bf
       -0.42870042 -0.29579526 0.22085331 -0.5097302
0001f0 7e 98 a3 be 44 0f 90 be 8f 38 2f 3e 9e 25 e9 3e
       -0.3195228 -0.28136647 0.17111419 0.45536512
000200 1e 2a be be 09 73 29 be b5 6c 15 be 37 3e e9 be
       -0.37141508 -0.16547789 -0.1459225 -0.4555528
000210 71 77 08 3f 47 bc d2 3e 75 8a 3d be b2 a9 0a bf
       0.53307253 0.4115927 -0.18509848 -0.54165184
000220 6f d2 67 3d 2c 6f 04 3f 7c 32 20 3e d1 22 b5 be
       0.05659717 0.51732135 0.15644258 -0.35378125
000230 b5 71 19 3e 52 96 4f 3b 7d 6f 90 3d da da 0d bf
       0.14984782 0.0031675291 0.07052515 -0.55412066
000240 6b 93 ed 3e 15 d4 0c 3f 0e 74 07 3f 4a 4e 00 3d
       0.46401533 0.5501111 0.5291146 0.031324662
000250 00 7a 53 3e 58 b2 f9 be 75 10 11 bf 3c a1 cd be
       0.20652008 -0.48768878 -0.56665736 -0.40162075
000260 d6 9f a8 3d 3c d6 02 be e9 71 01 3e 59 48 cb 3c
       0.08233611 -0.12777036 0.1264111 0.024814771
000270 03 a9 05 3f d2 45 0b 3e d6 a3 e7 be 75 2f d3 be
       0.52211016 0.13600853 -0.45242184 -0.41247144
000280 c0 e5 bd 3e cf 25 09 bd 18 ed 11 bf a4 68 ab be
       0.37089348 -0.033483323 -0.570024 -0.33478272
000290 92 80 9b 3e c6 28 2f 3e 5c 25 06 3f 8a 4c 65 3e
       0.3037153 0.17105398 0.52400756 0.22392479
0002a0 f3 e6 0c 3f 4c c4 e1 bd 6d be e2 bd f1 6a ec be
       0.550399 -0.11023769 -0.11071477 -0.4617534
0002b0 19 12 95 bc 01 fe 00 3e 0d 43 92 3e 68 75 4c 3e
       -0.018197106 0.12596895 0.2856678 0.19966662
0002c0 f1 24 e4 be 2d d6 f9 3e 73 33 e1 be fe c3 09 3f
       -0.44559434 0.48796216 -0.43984565 0.53814685
0002d0 3f 5a 00 3f ac f3 94 bd 50 c3 2a 3e a7 48 ae bd
       0.50137705 -0.07273039 0.16676068 -0.08509951
0002e0 7b 63 e5 3e b4 54 49 be 8b 60 83 3e 6c 27 66 ba
       0.4480246 -0.19661218 0.25659594 -0.0008779678
0002f0 76 b2 d9 3e 57 d4 0a 3f cd 64 4f 3d 09 09 41 3d
       0.42518967 0.54230255 0.05063324 0.047127757
000300 49 98 5f 3e 95 f3 0c 3f c5 2d 63 3e 7d b2 1c be
       0.21835436 0.55059177 0.22185428 -0.15302463
000310 ef 69 07 bf 2d b7 e4 3e 77 7c 08 bf e6 75 f5 bd
       -0.52896017 0.44671002 -0.5331492 -0.11985378
000320 03 f2 cc be 21 7c 05 3f 3c 77 b2 be aa 50 27 3e
       -0.4002839 0.5214253 -0.34856594 0.16339365
000330 c1 cb 90 be c4 5b 74 be d7 46 14 3f 7e 16 81 be
       -0.28280452 -0.23863131 0.57920593 -0.25212473
000340 28 a2 d1 bd d7 57 ed be 78 ba a1 3e 0a 35 7c 3e
       -0.10236007 -0.4635608 0.31587577 0.24629608
000350 32 53 19 3c 2a 3f 63 ba b8 55 e2 3e 12 ea 98 be
       0.009358214 -0.0008668775 0.44206023 -0.2986608
000360 ef c9 e0 bd 76 f2 62 3e 97 69 0f 3f 16 c6 08 3f
       -0.10976016 0.22162804 0.5602049 0.53427255
000370 3c c7 c7 3e ea 3c 6f bc da 9e bf 3c b2 62 12 bf
       0.3901919 -0.014601925 0.023391176 -0.5718185
000380 03 cc a7 3e ef 5f 00 3f 10 01 aa 3e e2 10 d8 3e
       0.32772836 0.50146383 0.33203936 0.4220038
000390 b0 71 9b 3e a2 f4 53 3e 66 50 ee 3c 31 31 c3 3e
       0.30360174 0.20698789 0.029091071 0.38123468
0003a0 9b 70 9f 3e ac 67 2e 3c 75 56 c6 3e 89 35 26 3e
       0.311406 0.0106448345 0.38737836 0.1623136
0003b0 39 ff 90 3e 7f 2e e3 3e 85 1f c6 3e d0 2c 0e 3e
       0.2831972 0.4437141 0.38695922 0.13884282
0003c0 c0 7c 86 be 99 a6 45 be b0 e9 e5 3e 03 72 31 be
       -0.26267052 -0.19301833 0.44904852 -0.17328648
0003d0 e9 41 73 be 6b 17 89 be 96 a1 d9 3e 78 d1 92 ba
       -0.23755611 -0.2677568 0.42506093 -0.0011201343
0003e0 9e 49 72 be c3 84 51 3d 28 29 00 3d cb c1 ee 3e
       -0.23660895 0.051152002 0.03128925 0.46632227
0003f0 7c cb 33 3e fd 49 0b bf 4c ec 94 3e d8 ef 09 3d
       0.17558092 -0.5440977 0.2908653 0.033676

weight f4 [256, 256]
000000 c1 b9 36 3d ca e6 29 3c e0 f9 76 bc f4 b7 65 3d
       0.044610742 0.010369966 -0.015074223 0.056083634
000010 b3 3a 29 bd 0e 87 3e 3d 5a 87 d6 3b 94 46 7e 3d
       -0.041315746 0.046515517 0.006546897 0.062079027
000020 bc 68 00 bd eb a7 80 bc 24 94 f3 3c 77 d6 1a bc
       -0.031349882 -0.01570507 0.029733725 -0.0094505465
000030 66 3b 82 bb b3 5a da bc 94 01 a2 bb 4a 7c 69 3d
       -0.003974366 -0.026654577 -0.004944036 0.057003297
000040 44 36 d9 3c 1c 68 ca 3c 14 b8 87 bc 70 d0 12 3d
       0.026515134 0.024707846 -0.016567267 0.035843313
000050 e8 e7 69 3d 1a 42 6a bc 3c ff 1b 3d 53 82 e0 3c
       0.05710593 -0.014297986 0.038085207 0.027405893
000060 d6 c4 50 bc 5b bd 36 bc 01 80 1e bc a0 4b 2b 3c
       -0.012742242 -0.011153544 -0.009674073 0.010455042
000070 2c b9 08 bd e9 df 03 ba 89 55 93 3d 63 9b b4 ba
       -0.03337972 -0.00050306186 0.07194049 -0.0013779219
000080 e0 b2 25 bc fb 95 3b 3c 56 c3 51 3d 26 04 32 3c
       -0.010113448 0.011449332 0.051211677 0.010865247
000090 de 79 e3 3b b1 2d ce bb c0 f2 a3 ba a6 8c 7a bc
       0.006942018 -0.006292068 -0.0012508258 -0.015292322
0000a0 fb ef 75 3d 69 dd 4d 3d dd 13 c2 3b 3b 96 3b 3d
       0.060043316 0.05025998 0.005922778 0.045797568
0000b0 44 02 86 3d 70 01 d9 bc 1d 9a 2a 3c 14 a8 26 bd
       0.06543401 -0.026489943 0.01041272 -0.040687636
0000c0 10 9b 20 3d 41 35 5b 3c 72 78 40 3d bc ba 3c bd
       0.03921038 0.013379396 0.046989866 -0.04607652
0000d0 d9 6e 8c bc dd 49 e6 3c 24 78 88 bd 08 28 9d 3d
       -0.0171427 0.028111393 -0.0666354 0.07673651
0000e0 36 c5 0b bd 94 d5 39 3b fc 1f 5d 3d 51 f5 20 bd
       -0.034123622 0.0028356062 0.05398558 -0.039296452
0000f0 90 2a 69 3d ea 36 1a 3d 62 14 bb bc 64 94 50 bd
       0.056925356 0.037650026 -0.022836868 -0.050922766
000100 14 b7 59 bd 8d 2f 94 bc c4 50 30 3d cb 52 12 3d
       -0.053153113 -0.01808908 0.043045774 0.03572349
000110 fe d0 64 bd bc 1b d4 bc 62 d2 17 bd 3c 87 81 3d
       -0.055863373 -0.025892131 -0.03706587 0.06324622
000120 3b a1 12 bd 7b 7d 0f 3d 41 1a 96 bc ca ee 3f 3d
       -0.035798293 0.035031777 -0.018323066 0.046858586
000130 2b 8a 87 3c d4 80 9c 3d 3b 0e 42 3d 30 12 a4 3b
       0.016545376 0.076417595 0.047376852 0.005007051
000140 ed a9 97 bb 90 8b 1c 3c 12 9e a5 bb b5 40 69 bc
       -0.004628411 0.009554759 -0.005054244 -0.014236619
000150 30 04 87 bc 0d 96 6f 3d 57 0e 51 3d 3e b3 29 bd
       -0.016481489 0.05849271 0.051039066 -0.041430704
000160 9a c8 58 3d 28 24 20 bd 2e 79 31 bd 0b b8 fc 3c
       0.052925684 -0.03909698 -0.043328457 0.030849477
000170 6c 59 2a 3d a8 f1 0b 3d 00 0d 46 bc 21 3c 29 bd
       0.041589186 0.03416601 -0.01208806 -0.04131711
000180 d0 27 78 3d 4d 82 f3 bc 91 65 98 3c 72 92 6b bb
       0.060584843 -0.029725218 0.018603118 -0.0035945443
000190 e6 03 27 3d 7e 58 66 3d 23 32 7f 3d b2 ad 25 3d
       0.040775202 0.056236736 0.062303673 0.040448852
0001a0 03 17 82 3c be 30 d4 3b f0 2f 19 3c bd 56 81 3d
       0.015880113 0.006475537 0.009349808 0.06315372
0001b0 f2 eb ba 3c 0b 6a 6f 3d 47 b1 ea 3c 8f 88 dd 3c
       0.022817586 0.05845074 0.028648986 0.027042655
0001c0 93 f6 b0 bc 9b 87 41 bd 18 b5 05 3d f8 4d 8e 3c
       -0.02160195 -0.047248464 0.032643408 0.017371163
0001d0 62 c9 06 3d 5d 89 2b bd fc d1 3b 3d 6a 15 cf 3c
       0.032906897 -0.041879047 0.045854554 0.025278766
0001e0 2e be b2 3c d0 03 76 3c d9 bd 28 bd 42 62 17 bd
       0.0218192 0.015015557 -0.041196678 -0.03695894
0001f0 80 8c 3d bb 21 90 27 bd fd c0 e2 bc 81 db 4c 3d
       -0.0028922856 -0.040908936 -0.027679915 0.050014023
000200 85 83 5f bc 05 56 72 3d cc 94 e5 3c 38 c1 b8 bb
       -0.013642197 0.059164066 0.028025053 -0.005638268
000210 0e 19 1d bc 27 e3 05 3d 5d e7 6a ba 01 ad 07 3d
       -0.009588493 0.032687332 -0.00089608674 0.033123974
000220 ab 24 88 3d 1b 3a f9 bc 2d d6 27 bd 3a f6 7f 3d
       0.06647619 -0.030423215 -0.04097574 0.06249068
000230 31 4e 8c 3b b9 b0 95 3d e3 20 5e 3c 7a c8 4e 3d
       0.004281782 0.07309098 0.0135576455 0.050484158
000240 6c bb fa 3c e2 37 3b bd 03 b2 9b 3d a7 f9 ee 3c
       0.030606948 -0.04570759 0.076023124 0.029171778
000250 00 9b 09 bd 42 d9 27 3d a0 fe c5 bb 4c ce a2 3c
       -0.033595085 0.040978678 -0.0060423166 0.01987376
000260 95 2c 3e bd b7 82 0c 3d b8 0e de 3c 4b 2b 5c 3d
       -0.046429235 0.034304347 0.027106628 0.053752225
000270 21 e8 d6 3c 37 3d c9 3c 30 a9 22 bd b6 40 27 bd
       0.026233735 0.024565322 -0.03971213 -0.040833198
000280 ab 5a 2c 3d 77 4d 57 bd 8a d3 03 bd ed 2c 7d 3d
       0.042078655 -0.05256411 -0.03218416 0.061810423
000290 0f 7e 2b bd a0 29 4e 3d d8 78 94 3d ca 95 2d bd
       -0.041868266 0.050332665 0.072496116 -0.042379178
0002a0 cf 45 8e 3d ae 0d 2f 3d 78 2a 13 ba bc a3 af bc
       0.06946909 0.042737655 -0.00056139333 -0.02144038
0002b0 a5 4c 23 3c ab 18 74 3d 54 dc 8d 3d 16 3f 38 bd
       0.009967004 0.059593838 0.0692679 -0.04498204
0002c0 b0 35 f5 3b 56 29 8c 3d 37 fe 58 3d f2 ef b5 bc
       0.0074832067 0.06843822 0.052976813 -0.022209141
0002d0 0a 27 81 bc de 86 06 3d 50 1c 05 bd 63 00 75 bd
       -0.015765686 0.032843463 -0.032497704 -0.059814822
0002e0 c1 28 e0 3c 7b fb 42 bd cd fa 66 3d 58 26 73 3d
       0.027363183 -0.04760311 0.056391526 0.05936274
0002f0 0c a7 6c 3d e0 56 b2 3c bd d8 ea 3c fe 0d bf bb
       0.057776496 0.02176994 0.028667802 -0.0058305254
000300 5c 26 31 bd 24 12 78 bc 2f ec 5c 3d d0 23 86 3d
       -0.043249473 -0.015141044 0.05393618 0.065497994
000310 dc 53 04 3d f9 2a ca bb 2e a6 5d bd 3a 7b 04 bd
       0.032306537 -0.0061696735 -0.05411356 -0.03234408
000320 78 1b 06 3d c9 3b 92 3d 20 79 ff 3b c8 81 b2 3b
       0.03274104 0.07140309 0.0077964216 0.0054476
000330 30 fa 94 bb 95 7d 1b b9 c9 0a 3f bd 34 14 0c bd
       -0.0045464262 -0.00014828735 -0.046641145 -0.034198955
000340 c8 99 0b bd b2 b2 23 3c 58 3a 38 b9 43 be 85 bc
       -0.034082204 0.009991335 -0.00017569342 -0.016326075
000350 8b a0 03 bd 15 f9 17 3d 76 8c 29 3d d8 f7 7a bd
       -0.032135528 0.037102778 0.04139372 -0.06127152
000360 31 29 bc 3c be f6 90 bc df d5 c8 bc 50 a6 ef 3c
       0.02296886 -0.01769578 -0.024516044 0.029254109
000370 1b 69 1a 3c f3 da 7d 3d a3 26 04 bd 0c 8f d9 3c
       0.009424473 0.061976384 -0.03226341 0.026557468
000380 38 ec 87 bc 7e 7c 81 3d e0 3f 0b 3d 77 cd 4c 3d
       -0.01659213 0.06322573 0.033996463 0.050000634
000390 5b 91 14 bb 40 ba 08 3c db 9f aa 3c db f5 94 3d
       -0.0022669646 0.008345187 0.020828178 0.07273456
0003a0 60 b6 bd bc 09 bd 1a bd 9d d4 96 3d 4d 67 97 3d
       -0.023158252 -0.037777934 0.073647715 0.0739275
0003b0 ab 3a 84 3d 22 35 95 3d 90 f1 8d 3d ce 13 d7 bc
       0.064565025 0.07285525 0.0693084 -0.02625456
0003c0 c4 da 2d bd 10 27 26 3c f5 7b 24 3d 2d 5d cf bc
       -0.04244496 0.010141149 0.040157277 -0.025312984
0003d0 f4 71 3a 3d 5e 06 54 3d 76 7c 83 3d 2d f1 cf bc
       0.04551883 0.051763885 0.064202234 -0.025383556
0003e0 f4 a2 a2 bc b9 3e 62 3c 8e 4d a2 bb 94 96 9f 3c
       -0.019853093 0.0138089 -0.004953093 0.019480981
0003f0 c6 80 2f 3d aa 43 4a bd 9e e1 65 3d 65 55 ac bc
       0.042847417 -0.049380936 0.05612337 -0.021036813

bias f4 [256]
000000 e2 3c 6f 3d 40 22 54 bc 39 16 8f 3b 86 59 2e bd
       0.05840767 -0.012947619 0.004366663 -0.042565845
000010 71 71 80 3d ca 04 b6 ba 2b 00 0d 3a c6 5c 60 3d
       0.06271637 -0.0013886925 0.0005378748 0.054775976
000020 aa 7f cc bb 8a 55 98 3c 0d 67 14 3d 81 a8 2f 3c
       -0.0062408047 0.018595476 0.03623109 0.010721327
000030 95 75 c7 bc a8 23 79 3c 91 df cf bc 4f 64 56 3c
       -0.02434806 0.015206255 -0.02537516 0.013085439
000040 34 ee 89 3d eb 41 18 bd 4d 58 94 bc 1c a4 70 bd
       0.06734887 -0.03717224 -0.018108511 -0.058750257
000050 47 59 16 bd a4 bc 29 bc 71 23 88 3c 58 ea 79 bd
       -0.036706235 -0.010359917 0.016618462 -0.061014503
000060 85 86 c3 bc 24 44 6e 3d 3e a5 63 bd 11 e8 2b 3d
       -0.023867855 0.058170453 -0.05557751 0.041969363
000070 0c bd 6c 3c c9 99 7e 3d da 03 5a 3c 08 c1 2e bd
       0.014449369 0.06215838 0.013306582 -0.042664558
000080 18 6b a7 3c ec 38 29 3d 88 76 b2 3c 6c d3 7c 3c
       0.020436808 0.04131405 0.021785036 0.015431266
000090 02 ba 39 bd ce 8a 5b bd 9b cd 63 bd 2b f7 c9 3c
       -0.045343406 -0.05359917 -0.055616003 0.024653992
0000a0 66 40 51 3d a0 8b 48 bb a2 af 32 bd 20 e6 20 3d
       0.051086806 -0.00306008 -0.043624528 0.039281964
0000b0 ab 15 96 3d 54 51 9f 3b e2 0a e1 bb 45 68 d2 3c
       0.073283516 0.00486199 -0.0068677524 0.025684485
0000c0 b0 37 01 3d d8 7f 12 3a 15 cd 07 bb ba cb 65 3d
       0.03154725 0.0005588508 -0.0020721604 0.056102492
0000d0 bc c8 e7 3c 23 ff 6d 3d f4 51 c6 3c 99 66 3a bd
       0.02829396 0.058104645 0.024209 -0.045508
0000e0 6f 34 43 bd 6f 06 8e 3d ec 3d 01 3d 3d 20 12 bc
       -0.047657426 0.06934821 0.031553194 -0.008918819
0000f0 ff 0c cc 3c e1 83 7f bd e9 fb 19 bd 17 51 8b 3d
       0.02490854 -0.06238163 -0.037593756 0.06802576
000100 3c 0b 8f 3c b3 5b 1b 3d 7e 62 fc 3b 2c c3 3a bd
       0.017461412 0.037929248 0.007702171 -0.045596287
000110 92 05 3c 3d 32 02 ec 3c 7e e2 17 3b 60 ab 4e 3c
       0.04590375 0.02880964 0.0023175771 0.012614101
000120 29 7e 59 3d 08 20 da 3c b2 0c 41 3d 1b d4 12 3d
       0.05309883 0.026626602 0.047131248 0.03584681
000130 06 34 57 bd 34 c5 8e bc f1 c6 1a bd 02 29 25 bd
       -0.052539848 -0.017428018 -0.03778738 -0.04032231
000140 18 d5 58 3d 36 41 0b bd b0 d5 a0 bc 2c 31 38 bd
       0.052937597 -0.033997737 -0.019633144 -0.04496877
000150 f6 56 42 bc c2 84 18 bd a3 65 bb bc 71 a4 38 3d
       -0.011861553 -0.037235983 -0.022875613 0.0450787
000160 73 9a 15 bd cf 1f 8a bc aa c5 28 bc 91 ff 3f 3c
       -0.036524247 -0.01686087 -0.010301033 0.011718647
000170 db 71 4d bc 1d c6 9d 3d a8 d1 57 bc 9e 0f 10 bd
       -0.012539352 0.07703803 -0.013172545 -0.035171144
000180 d1 c2 e7 bb 23 9a 85 bc db 73 3b 3c 25 e7 a2 3b
       -0.0070727845 -0.01630885 0.011441196 0.004971402
000190 80 59 0f 3c c5 65 5a 3d ab 86 61 3a b4 4e ab 3c
       0.008749366 0.05331971 0.0008603136 0.020911552
0001a0 94 4f 2d bd 22 50 75 bd 6e b5 35 bd 4b 1a 1a bd
       -0.04231222 -0.059890874 -0.044362478 -0.03762273
0001b0 a2 dc 6e bd 64 28 bf ba c0 bd 71 bc c3 ff 84 bb
       -0.05831588 -0.0014584181 -0.014754713 -0.0040588095
0001c0 7e 82 e7 bb 81 b1 1d 3d f7 a8 50 bc 30 6e 5c bd
       -0.0070651164 0.03849936 -0.012735597 -0.05381602
0001d0 6d 90 90 bc d6 38 52 3d 00 4d 83 3d f8 e6 41 3d
       -0.017646993 0.051323734 0.06411171 0.04733941
0001e0 34 07 67 3c 03 87 98 bb e3 9a 3b 3d f1 9d fc 3c
       0.014100838 -0.0046547665 0.04580201 0.030837031
0001f0 e0 bb 2c 3c d2 00 82 bd 7a 3f 23 bd 98 1a 06 3d
       0.01054284 -0.06347813 -0.039855458 0.032740206
000200 64 7d 83 bb a8 5a 47 bd 84 25 78 3d c0 c0 7c 3b
       -0.0040127505 -0.04867044 0.060582653 0.0038567036
000210 28 52 cb 3c a6 71 a8 bc 46 da 1c 3d ae 64 15 3a
       0.024819449 -0.020562004 0.0382941 0.00056989014
000220 0f ab bb 3b a1 c4 81 bb e4 07 d1 3c 9b 97 f6 bb
       0.005727179 -0.0039602076 0.025516458 -0.007525397
000230 ae b3 08 bd 31 69 44 3d 9d 08 21 bb 26 8d f4 bc
       -0.03337448 0.04795188 -0.0024571784 -0.029852461
000240 20 52 7e bd d6 43 08 bd 34 6f c9 bb 02 77 81 3d
       -0.06209004 -0.03326782 -0.0061472896 0.06321527
000250 2a 57 80 3c da 8e ad bc e9 3c 38 3d 0c f5 42 3d
       0.015666563 -0.021186281 0.044979963 0.047596976
000260 28 e0 fe 3c dc a4 5e bd d7 79 05 3d f0 13 78 3d
       0.031112745 -0.05435644 0.0325869 0.06056589
000270 db 82 16 3b 30 4e ca 3b bf 8f 8c bc 24 0c 36 bd
       0.002296618 0.0061738715 -0.017158387 -0.044445172
000280 3e 91 80 3d 49 6c 54 bd cd 5b 60 3d 22 0d 5a bc
       0.06277703 -0.05186108 0.054775048 -0.013308795
000290 a4 f7 03 3d cf 91 64 3d e8 55 aa 3c 06 1f 75 bd
       0.03221859 0.055803116 0.020792916 -0.05984404
0002a0 f6 f1 2b bd ec 43 95 bc 7d 96 86 bc 84 29 5f bd
       -0.0419788 -0.018220864 -0.01642918 -0.05448295
0002b0 b7 75 ef 3c 6f 8e 8b bd 87 18 2f 3d f7 e8 ef 3c
       0.029230935 -0.068142764 0.042748 0.029285891
0002c0 36 82 59 3d 8b a2 4f 3d 43 11 68 3d 52 28 a2 bc
       0.053102694 0.050692122 0.056657087 -0.019794617
0002d0 00 71 77 3a 26 b9 3d 3d 24 95 04 3d ab 17 a7 bb
       0.00094391406 0.04631915 0.032368794 -0.005099257
0002e0 79 e8 be 3c b0 56 0d 3d e5 ab 9b bc 3b b9 8d bc
       0.023304211 0.0345065 -0.019002864 -0.017300239
0002f0 d2 48 eb 3c 18 28 c2 bc 92 a7 c9 3c f5 d5 0e bd
       0.028721247 -0.023700759 0.024616037 -0.034872014
000300 e0 09 ca 3c da e6 b2 3c 45 f9 48 3d 6d 7b ba 3c
       0.024662912 0.021838594 0.049065847 0.022763932
000310 1c f2 5e bd f7 13 8a bd 2f 6a 89 3c 3b 62 da bc
       -0.054430112 -0.06742089 0.016774265 -0.026658168
000320 2b e1 03 3c 61 c9 4b 3d 29 30 3c bc 15 c8 0f 3d
       0.00804929 0.049752597 -0.011486092 0.035102922
000330 02 bd 3f 3b 7e 6e 6c 3d ff c7 66 3d a2 fb 36 3d
       0.0029256945 0.05772256 0.056343075 0.04467357
000340 90 24 27 bd 86 ef 91 bc e3 19 4e 3b 16 72 a0 bc
       -0.040806353 -0.017814409 0.0031448535 -0.01958565
000350 a6 b6 5e 3d b1 a5 81 3d df 2e 94 3d 9a d2 67 bc
       0.054373406 0.06330431 0.072355025 -0.014149332
000360 89 44 1e bd 00 8b 13 3d 44 fa e0 bc 65 74 25 3d
       -0.03863958 0.036021233 -0.027463086 0.040394206
000370 47 7b 7a 3d 3d e4 ce 3c c0 4c 48 3c 58 cd 0a bd
       0.061152723 0.025255317 0.01222533 -0.033887237
000380 60 fc f8 bc bc 3e 25 bd ea fc 81 3d d6 b2 ba bc
       -0.03039378 -0.04034303 0.06347068 -0.022790354
000390 98 06 24 3d c2 4d b8 bc 24 d1 be bc 2b 72 82 bc
       0.04004535 -0.022498015 -0.023293085 -0.01592358
0003a0 db c8 96 bc 38 6c 7a bc 43 6d 26 3d c9 ee 5b 3d
       -0.018406322 -0.01528459 0.040631544 0.05369452
0003b0 d7 56 08 bd d2 39 70 bc 81 f8 06 bb a1 f9 79 bd
       -0.033285942 -0.014662223 -0.0020594897 -0.06102908
0003c0 b8 c7 13 3d a4 42 c3 bc 1c 11 a3 3c ad b9 63 bd
       0.03607914 -0.023835488 0.01990562 -0.055596996
0003d0 4a 8d 55 bd 5c 59 cb 3c 5c c0 6d 3b 5a ed 40 bd
       -0.052136697 0.024822883 0.0036277985 -0.047101356
0003e0 54 2d 03 bd 58 0a 3a bd e8 7a 71 3d 60 11 73 bd
       -0.03202565 -0.04542002 0.058955103 -0.059342742
0003f0 f9 d2 13 3d 76 c8 de bb 56 d3 d4 3b 05 29 42 3d
       0.03608987 -0.006798799 0.00649492 0.0474024

weight f4 [64, 256]
000000 81 55 87 bc dc 83 ca 3c 2f eb 92 ba a6 d0 9b 3c
       -0.016520264 0.024721079 -0.0011209006 0.01902039
000010 b2 09 b0 bc db 5a 85 3d 42 c0 83 3d 56 03 75 3d
       -0.021488998 0.0651147 0.06433155 0.059817635
000020 1d b6 88 3d 21 ae 89 3d 27 fe 53 3d 2b 3c 28 3d
       0.0667536 0.067226656 0.05175605 0.041073006
000030 f4 1c 1c bc 90 5d 91 3d 70 42 83 3d 7c dd 7c 3d
       -0.009528387 0.07097924 0.06409156 0.06173466
000040 13 6b 48 3d 73 6d 34 bd 25 d0 e1 bc 1a ec ef 3c
       0.04893024 -0.04404969 -0.027565071 0.029287387
000050 d0 a6 2e 3d 82 7b 47 3d ec 2a 28 3c b3 d4 0c 3b
       0.042639554 0.04870177 0.01026414 0.0021489083
000060 54 85 81 3d 0a 80 49 bd e4 91 b8 bc 1e a2 4f 3d
       0.063242584 -0.049194373 -0.022530504 0.050691716
000070 20 70 05 3c 80 92 3b 3d af f3 bf 3c 78 29 90 3b
       0.008144408 0.04579401 0.023431627 0.0043994747
000080 52 c9 29 3d 1e 9b 3a bd bd c7 2a 3d e1 8b 8f 3c
       0.04145176 -0.045558088 0.04169439 0.017522754
000090 05 13 30 3d e0 a8 1e 3d d3 0e 42 bd b3 64 24 bc
       0.04298689 0.03873527 -0.04737742 -0.010033774
0000a0 7b 5f 4b 3d e4 5e be 3c 00 fa 6d 3b b7 a9 2f bd
       0.049651604 0.023238607 0.0036312342 -0.042886462
0000b0 70 ae 77 3d 03 75 c9 3b a0 64 bb 3c 4c a0 2f 3d
       0.06046909 0.006147982 0.02287513 0.04287748
0000c0 6e 0f 25 bd 18 34 54 bd 40 5d 97 3c 20 d0 05 bd
       -0.040297918 -0.051807493 0.018477082 -0.032669187
0000d0 96 48 fe 3a 76 a9 38 bc a5 dd 83 bd 75 d2 95 bc
       0.0019400294 -0.011270871 -0.0643876 -0.01828883
0000e0 9d da e4 3c 21 3e 55 3d 4e a9 5c 3d c2 1c cb bb
       0.027936274 0.052061204 0.0538724 -0.0061984966
0000f0 ca 28 08 bd 28 c1 81 3d 55 aa 60 bd 12 f7 95 3d
       -0.033242024 0.0633567 -0.05484994 0.073225155
000100 2d f6 e5 3b 6e 7a 3d 3c 42 f2 93 bc 80 18 33 bb
       0.007017872 0.011564834 -0.018059853 -0.0027327836
000110 a0 32 44 3c 69 aa 66 3d 96 28 a8 bc ae 18 4c bd
       0.011974961 0.05631486 -0.020527165 -0.049828224
000120 9c 2c 41 bc 58 a8 09 bd 2b ac 03 bd 32 cb f9 3b
       -0.011790421 -0.03360781 -0.032146614 0.0076230997
000130 30 de d0 3c c0 9e 16 bb 92 27 4f 3d 5f bd 71 3c
       0.025496572 -0.0022982806 0.050574847 0.014754622
000140 64 94 5b 3d c9 35 45 3d fa 64 7c bd f8 f9 37 bd
       0.053608313 0.048146997 -0.061619736 -0.044916123
000150 9a f9 23 3d 75 a6 20 3d fa fa 18 bc 3d 5d 8c 3d
       0.04003296 0.039221246 -0.009337181 0.06853721
000160 67 d9 1e 3d 33 f3 b4 bc 34 38 18 3d 5b 22 6e 3d
       0.03878155 -0.022088623 0.037162974 0.058138233
000170 6b 15 9e bc 60 bc 28 3b ba 22 4c 3d e8 c7 16 3d
       -0.019297322 0.0025747046 0.049837805 0.03681174
000180 7e ef 31 bd 1e bb 58 bd d3 7f 80 3d 8c f1 5e bc
       -0.04344129 -0.052912824 0.062743805 -0.013607394
000190 b0 c0 57 3c 8c 34 87 3d d3 81 1e bc 22 66 8a 3d
       0.013168499 0.066018194 -0.009674507 0.067577615
0001a0 18 28 52 bc 50 a5 54 bc 48 ed 5b bd 51 ab a4 3c
       -0.012826942 -0.012978867 -0.053693086 0.020101221
0001b0 06 18 6f bc 1b 13 54 bc 36 c1 01 bd a0 9c 06 bd
       -0.01459313 -0.012944008 -0.0316784 -0.032864213
0001c0 0e 2f 3f bd 05 a4 20 bc 70 cb 7a bd d4 91 a9 b9
       -0.046675734 -0.00980473 -0.06122917 -0.00032342842
0001d0 c9 71 81 39 b5 98 20 3d 98 8d c7 bb ae d8 d5 bc
       0.00024689574 0.039208133 -0.0060898773 -0.026104297
0001e0 ca 62 33 3d e2 0f 16 bd 6a d2 36 3d e8 3e 03 3d
       0.043795384 -0.03663624 0.04463426 0.032042414
0001f0 fc 1f 7e bd 3d d4 d1 3c 3c ab e8 bc c7 95 34 3c
       -0.06204222 0.025613898 -0.028401963 0.011022038
000200 57 99 70 3b 88 de 83 3c 9d 14 20 bd 88 8b c3 bc
       0.0036712491 0.016097322 -0.03908216 -0.023870245
000210 d4 a6 7e bd b0 78 6f 3d 9c be 66 bd f6 f3 89 bc
       -0.06217082 0.058464706 -0.056334123 -0.016839962
000220 a2 af 54 bd a5 33 4f 3d e0 dd b3 3b 93 b0 f9 3a
       -0.05192531 0.05058636 0.005489096 0.0019049816
000230 68 de 02 bd 3c 99 b0 ba 4d a5 49 3d 94 f1 aa 3b
       -0.031950384 -0.0013473402 0.04922991 0.0052167866
000240 00 89 ed bb c0 d8 1a 3d 99 2d 30 3c c3 63 93 3d
       -0.0072489977 0.037804365 0.010753059 0.071967624
000250 67 67 36 3d f6 5f 66 bb ad 7c 49 bd f3 9f 8a 3d
       0.044532206 -0.0035152412 -0.049191166 0.06768789
000260 a0 8c c5 3c 9a e6 5b bc 84 20 39 3c 1b 29 9c 3d
       0.024114907 -0.013421679 0.011299256 0.07625028
000270 7e a1 55 3d 30 ff d1 bc 93 0e 32 3c f1 54 04 bd
       0.052155964 -0.025634378 0.010867733 -0.03230757
000280 f4 f3 e0 bb 97 90 3d 3d df d6 ce ba 40 8a 81 3c
       -0.006865019 0.04628047 -0.0015780589 0.015812993
000290 cf ab 17 3b f1 14 0d 3d 3a 20 99 3d de 78 56 bd
       0.0023143177 0.0344438 0.0747685 -0.05236136
0002a0 09 ff 95 3d 00 a8 78 3d 76 f3 15 3d c2 b8 43 bd
       0.07324035 0.060707092 0.036609136 -0.04778362
0002b0 ec 36 56 3d 28 9d 00 3d ee 57 07 bd db be b5 3c
       0.05229847 0.031399876 -0.03304284 0.022185734
0002c0 21 79 21 3d 7d d3 aa bc 4c 5f c5 bb 95 67 1f 3d
       0.03942216 -0.020852799 -0.006023323 0.038917143
0002d0 8c ea f9 3c 51 7f 0f 3d 93 44 ba bc a7 82 53 3d
       0.030507348 0.035033528 -0.022737777 0.05163827
0002e0 79 9d 99 bc 12 c2 aa bc ef f5 23 bd a0 34 2d 3d
       -0.018751847 -0.020844493 -0.040029462 0.042286515
0002f0 d3 9b 84 3d a5 45 33 3d 2e d4 af 3c 8d d1 b2 3b
       0.064750336 0.04376759 0.02146348 0.0054571093
000300 a8 86 3c 3c 08 fc f2 bc f7 1c e3 3c 4c 9e 98 3d
       0.011506714 -0.029661193 0.027723772 0.07452068
000310 1e 74 6d 3d 9d 07 81 bc e6 ab f4 bb 3f b9 23 bd
       0.057972066 -0.0157507 -0.007466781 -0.039971586
000320 73 04 e5 bc 69 0d 38 bc b5 04 ae bc ff 84 25 3d
       -0.027956223 -0.011233666 -0.021242479 0.040410038
000330 39 6c 4a bd 2c 49 d8 3c b8 78 51 3d 90 b9 f4 bb
       -0.049419615 0.026402079 0.051140517 -0.00746841
000340 38 24 dc bc 31 92 5b 3c 74 b4 ec bc 6e 5a 19 3d
       -0.02687274 0.013401554 -0.02889464 0.037439756
000350 cb 70 ca 3c 61 28 9a 3d bc c6 9e ba d9 86 6e bc
       0.024711987 0.07527233 -0.0012113671 -0.014558517
000360 da 4e 77 3d 48 76 b2 bc 16 58 13 3c 4c 9d 97 bb
       0.060377933 -0.021784917 0.008993169 -0.0046269055
000370 f1 3f 83 3d dc 83 86 3c 64 3f c3 bc 58 be b1 bb
       0.0640868 0.016420297 -0.023833938 -0.005424302
000380 ef 61 66 3d 1e 73 1d bd 35 1d 19 bc 4c 75 8e 3d
       0.05624574 -0.038439862 -0.009345342 0.06955966
000390 5d c1 a1 3c cc 74 10 3d 40 6b 30 3d 4a 5f 4c bd
       0.019745523 0.035267636 0.04307103 -0.049895562
0003a0 17 29 8c 3d af 8f ef bb e3 92 18 bd cd 0a bf bc
       0.06843775 -0.0073108296 -0.037249457 -0.02332058
0003b0 2c da ce 3c 9c c1 d4 3c b7 1c f7 bc e4 92 88 3c
       0.025250517 0.025971226 -0.03016506 0.016671605
0003c0 68 58 a0 3d 26 80 ab bc 14 a9 4f bd 9a 4e b6 3b
       0.07829362 -0.02093513 -0.050698355 0.0055635693
0003d0 8d ef 68 3c f1 bf 79 bc c8 52 31 bd 66 37 2d bd
       0.01421727 -0.015243516 -0.043291837 -0.04228916
0003e0 20 b2 84 3d 80 db 26 3d 31 d6 a0 bc 0f 90 47 bd
       0.06479287 0.040736675 -0.019633384 -0.04872137
0003f0 5e 28 43 3d 8b 54 9f 3d 94 b3 c7 bc 39 8d 9e bc
       0.04764592 0.07779797 -0.024377622 -0.01935445

bias f4 [64]
000000 39 d0 25 3d 17 1e 82 bc 7d 3b 40 bd c7 b3 5f bc
       0.04048178 -0.015883489 -0.046931732 -0.013653702
000010 c6 44 0b bd 28 67 49 bd cf 69 3e 3d 8b 40 8e 3c
       -0.034001134 -0.049170643 0.046487626 0.01736476
000020 d7 10 b2 3c 9b f8 e8 3c 9c f5 ae 3c 16 9d 26 bd
       0.021736545 0.028438857 0.02135735 -0.040677153
000030 58 bf 22 bd 77 e0 97 bd 52 6d fa 3c 3d 57 8b bd
       -0.03973326 -0.0741586 0.030569706 -0.06803749
000040 d6 30 56 3d d9 25 0b 3d 67 86 49 3d ad 99 7e bc
       0.052292667 0.03397164 0.04920044 -0.015539569
000050 17 a0 9b 3d 6a fd 92 bd 92 be 88 bd 38 4f a4 bc
       0.07598894 -0.07177241 -0.066769734 -0.020057306
000060 4f 3e 6e bd 51 44 c0 3c ba c9 80 3d 77 c3 0d bb
       -0.05816489 0.023470076 0.06288476 -0.0021631399
000070 f8 8b 0f 3d 3b 7b 28 3d d1 0d 38 bc 35 5e b5 3c
       0.035045594 0.041133147 -0.011233763 0.022139648
000080 9f c0 84 3d 09 68 16 bd ec 92 cc bc 92 e9 20 3d
       0.06482052 -0.03672031 -0.024972402 0.03928525
000090 eb 25 0f bd 67 16 e6 3b e5 bb 83 bc 22 30 34 bd
       -0.03494827 0.0070217135 -0.016080806 -0.043991216
0000a0 0c c5 91 bd f0 fa e1 3a 0a d5 db 3c 2f 60 0b bc
       -0.07117662 0.0017240923 0.026834983 -0.008506819
0000b0 f5 df 4f bd 4f 68 67 bd 11 e5 3e bb 79 ef 23 3d
       -0.05075069 -0.05649596 -0.0029128233 0.0400233
0000c0 ff 60 7a 3d e7 98 17 bd 6d 28 4f 3d 32 cd 4f 3d
       0.06112766 -0.037011053 0.050575662 0.0507328
0000d0 15 11 3a bd 0b 10 5c 3c 04 25 62 3d 09 76 75 3c
       -0.045426447 0.013431559 0.055211082 0.014981755
0000e0 54 02 fb 3c d0 19 84 bd a4 2a 91 3d 89 51 a9 3b
       0.030640759 -0.06450236 0.07088211 0.0051671905
0000f0 45 41 26 bd 33 8f 98 3c 9d 75 23 3c 8e 01 3e 3d
       -0.04058959 0.01862297 0.009976772 0.0463882

weight f4 [256, 64]
000000 fa be ed 3c 10 58 c9 bd 65 82 b1 3d b7 ab 8d 3d
       0.029021729 -0.0983125 0.08667449 0.06917518
000010 72 89 93 bc ae 17 f2 bc c2 0c 3c 3d c8 50 00 3e
       -0.018009875 -0.029552307 0.045910604 0.12530816
000020 d9 ac 1a bd ef 2f 12 bd 0f a0 b8 bd c6 ab ff bc
       -0.037762497 -0.035690244 -0.09014904 -0.031209838
000030 af c4 9b bd 48 ce 7b bd 60 f0 82 bd 70 4b bb bd
       -0.07605874 -0.061476022 -0.06393504 -0.09145248
000040 59 dc 85 bd 00 40 50 bd ef 4f 0a bd d4 19 db 3d
       -0.065361686 -0.050842285 -0.033767637 0.10698286
000050 9f d8 e3 bc 0d 71 fb 3d 18 c9 4f bc c3 b1 5c bc
       -0.027813254 0.12277422 -0.012682222 -0.013470116
000060 8e c1 73 bd 84 a0 1c 3c 22 d7 ca 3d f3 fb 81 3d
       -0.05951076 0.009559754 0.099043146 0.063468836
000070 24 a9 8c 3d 91 92 e1 3d f6 b8 7f bd e1 d0 8f 3d
       0.068681985 0.110142834 -0.062432252 0.07022262
000080 55 57 8f bd 23 20 d8 3d 5c 09 c7 bd f4 5c a3 3d
       -0.06999079 0.105530046 -0.09718582 0.07976714
000090 a0 4d 75 3d c5 de 64 3d a7 b3 da bd f7 dd 19 bb
       0.059888482 0.055876512 -0.10678797 -0.0023478249
0000a0 46 b7 92 ba d3 01 0a be d5 50 a1 bd bd bf 66 3d
       -0.0011193536 -0.13477258 -0.078767456 0.0563352
0000b0 e5 ea d7 3c cc 1c 74 bd a1 0e a8 bd 5e 1b a9 3d
       0.026357124 -0.059597775 -0.08205915 0.08257173
0000c0 9f a0 6b bd fd f5 bc 3d 64 12 02 be af 06 83 3d
       -0.057526227 0.09226606 -0.12702328 0.06397759
0000d0 51 8d 2e 3d 2b ba ae 3d 1d ae b1 3d 1b 65 f5 3d
       0.04261524 0.085316025 0.086757876 0.11982175
0000e0 77 75 94 bd 0b 95 81 bd d4 b9 98 bd c0 36 01 be
       -0.07248967 -0.06327256 -0.07457319 -0.12618542
0000f0 c7 46 fb b9 af 8a c5 bd 14 20 84 bb e1 31 fa bc
       -0.00047927184 -0.096455924 -0.0040321443 -0.030541362
000100 b8 fe 61 bd e8 42 21 3d 84 86 fb bd 98 29 d5 3d
       -0.05517456 0.039370447 -0.12281516 0.10408324
000110 92 16 bc 3d ba 21 f9 bd 28 d4 52 bd 70 3c b5 3d
       0.091839924 -0.12164636 -0.05147186 0.08849418
000120 34 50 55 bd 90 b0 c2 bd b0 57 09 bd 56 0e 91 3d
       -0.05207844 -0.09506333 -0.03353089 0.070828125
000130 c8 fc 03 3d c0 db e3 3c 72 e2 d6 bd ac fe bb 3d
       0.032223493 0.027814746 -0.1049241 0.09179434
000140 b4 43 05 3d 00 d2 8b b9 64 29 33 bd ce ba b2 bd
       0.03253527 -0.00026668608 -0.043740645 -0.087270364
000150 60 40 6a 3d 78 12 43 bd 28 26 08 3d c0 05 57 bd
       0.0571903 -0.047625035 0.033239514 -0.052495718
000160 98 54 a4 3d d0 38 cd 3d 00 d2 94 39 c8 b0 05 bd
       0.080239475 0.10020602 0.00028385222 -0.032639295
000170 e0 c0 a7 3d ac 05 90 bd 86 f7 88 bd 1a 4d 81 3d
       0.08191085 -0.07032332 -0.06687836 0.06313534
000180 6c 72 f3 3d bc 5c 14 3d 50 ab ef 3d 54 c4 c8 bd
       0.118870586 0.03622125 0.11702597 -0.098030716
000190 bc c4 a8 bd 56 27 eb bd 84 64 32 bd 90 d5 52 3c
       -0.08240649 -0.11482112 -0.04355289 0.0128683
0001a0 38 18 d7 3c 20 53 ef 3d fe d1 ae bd de 69 cd 3d
       0.026256666 0.11685777 -0.085361466 0.10029958
0001b0 00 60 58 bb 3e e4 c5 3d 00 d7 07 bd 26 2a a0 3d
       -0.0033016205 0.09662674 -0.033164024 0.07820539
0001c0 86 8a de bd e8 fa f4 3d 20 0b 8f bc f6 02 88 3d
       -0.10866265 0.11961919 -0.01746136 0.0664119
0001d0 82 38 b8 3d 24 cd f3 3d 98 b9 ab bd e4 3b 93 bd
       0.08995153 0.11904362 -0.083850086 -0.071891576
0001e0 14 b7 82 3d 70 dd 32 bd 02 01 e1 bd 60 0d de bb
       0.06382576 -0.04366821 -0.1098652 -0.006776497
0001f0 b8 ce de bc 5c cc f9 bd 30 12 2a 3d 9a 17 da bd
       -0.02719818 -0.121971816 0.04152125 -0.10649033
000200 73 30 0c bd d3 6a 1e 3d 4d d2 b5 bd 6a 79 e0 3c
       -0.034225892 0.038676094 -0.08878002 0.027401645
000210 00 41 f6 bd c5 ce a8 bb b6 74 ce bd a4 f5 ef 3d
       -0.120241165 -0.005151602 -0.100808546 0.11716774
000220 d7 62 9a bd 95 b9 02 be 57 53 d2 3d 89 b5 34 bc
       -0.075383835 -0.12766106 0.10269802 -0.0110296095
000230 2b b2 a5 bd fb 2f 12 be 64 84 0f bd c7 67 ee bd
       -0.080906235 -0.14276116 -0.035038367 -0.11640888
000240 3f 44 97 3c 3a b1 3d 3d a4 af 06 3e 96 87 92 bd
       0.01846516 0.046311595 0.13152939 -0.07154767
000250 89 c2 7e 3d e0 ec 91 3d 45 e4 ea 3d ab e5 38 3d
       0.062197242 0.071252584 0.1146932 0.045140903
000260 1e c7 be 3d c0 6a 0b 3c 4e 08 92 bd 07 a8 8d 3d
       0.09315322 0.008509338 -0.0713049 0.06916814
000270 71 e1 9f 3d 8e 81 34 3d c1 ce c6 3d c8 58 1d 3c
       0.078066714 0.044068865 0.09707404 0.009603687
000280 2b e9 42 bd cb 1b 90 3c 2c ff e1 3c 10 69 51 3d
       -0.047585648 0.017591378 0.027587496 0.051125586
000290 58 fd d8 bd 98 08 ca 3d d4 3f 39 bd 91 17 bf 3d
       -0.105951965 0.098649204 -0.045226887 0.09330667
0002a0 18 b7 10 3d 1b 2a af bc 69 c4 b7 bc ff 9a 35 bd
       0.03533086 -0.021382382 -0.022432523 -0.04433727
0002b0 36 50 03 bd c5 00 97 3d 40 df 8b bd e4 df 02 3e
       -0.032058917 0.07373194 -0.06829691 0.1278072
0002c0 c3 be 5b 3d 60 07 d6 bd 2f e1 32 3d ab 92 87 bd
       0.05364872 -0.104506254 0.043671783 -0.066197716
0002d0 bb 49 bb 3d fb e3 9d bd ba 35 88 3d 00 51 73 bd
       0.09144922 -0.077094994 0.066508725 -0.05940342
0002e0 c8 77 cf bd 4e eb 0f be f0 cd 95 bd 2c 78 ff bd
       -0.10130268 -0.14054605 -0.0731467 -0.12474093
0002f0 53 9a ca 3d 12 ab 06 3c 17 f2 05 3e 9b 5e f5 bd
       0.09892716 0.008219497 0.13080631 -0.11980935
000300 48 6d bf 3d 2a 98 a0 3b 80 a2 e1 3d fe 13 77 3d
       0.093470156 0.004900952 0.110173225 0.0603218
000310 fd 3f 06 3d fc 75 0e be c5 ef 73 3d 6d ad ee 3d
       0.032775868 -0.13912195 0.059554834 0.11654172
000320 dc d4 a4 bd 7e 26 ed bd 87 25 f3 3c 2a 09 0a 3e
       -0.08048412 -0.115796074 0.02968098 0.13480058
000330 43 55 a0 3d 59 f3 f6 bd 32 d0 54 3d 38 e2 05 bd
       0.078287624 -0.12058134 0.051956363 -0.032686442
000340 53 d4 f2 3d b8 b0 95 3c bd d6 23 3d 8a 84 d9 bc
       0.11856904 0.018272743 0.039999712 -0.026552457
000350 b9 a5 2f bd d3 47 b2 3d 44 1c 24 3d 19 ed a1 3d
       -0.042882655 0.08705106 0.04006602 0.07906551
000360 b0 59 a1 bc 7f bf 0d 3e 23 91 d0 bd 1b d5 2a 3c
       -0.019696087 0.13842581 -0.10183933 0.010426785
000370 da 41 b2 bd a7 f3 88 bd 63 02 8e bb 36 6d a3 bb
       -0.087039664 -0.06687098 -0.0043337806 -0.004987384
000380 c4 e8 96 3d 34 7c 0e be d0 32 ad bc 80 21 43 3c
       0.07368615 -0.13914567 -0.021142393 0.0119098425
000390 33 32 c5 bd bc 38 30 bd 7b b8 9f 3d 60 71 62 3d
       -0.09628715 -0.043022856 0.07798859 0.055283904
0003a0 99 f4 af bd dd 23 43 bd 6d 01 a9 3d 54 5d bb bc
       -0.08591575 -0.047641624 0.08252225 -0.02287165
0003b0 32 d3 ec 3d 17 f6 8d 3d 47 25 25 bb 92 43 81 bd
       0.1156372 0.069317035 -0.002519922 -0.06311716
0003c0 ba f2 1c 3d b1 27 0f be 28 2e be 3d b0 a8 ef bb
       0.03831742 -0.13979985 0.09286147 -0.0073138103
0003d0 58 de 7c 3d 85 df bb 3c 4d da b4 3d 25 87 dd 3d
       0.06173548 0.02293373 0.088307 0.108167924
0003e0 52 71 4c 3d ba 4b fe 3c 2f d5 93 3d cf 7f fa bd
       0.04991276 0.031041969 0.07218396 -0.12231409
0003f0 9b 3b 80 3d f9 7d ef bc cb 8a a9 3d e1 4b 14 be
       0.06261369 -0.029234873 0.08278426 -0.1448207
