mlruns/607477153518912122/140774fb4dfb458896f1c7b9456881fa/artifacts/model/data/model.pth (torch, 960190 bytes, 29 tensors)

empty_value f4 [2]
0	0x00000000	0.0
1	0x00000000	0.0

prototype f4 [2]
0	0x00000000	0.0
1	0x00000000	0.0

weight f4 [256, 6]
0	0x3e18b6af	0.14913438
1	0xbeb98a49	-0.36238316
2	0x3d617b32	0.05504913
3	0x3e5871e7	0.211372
4	0xbd8e1278	-0.069371164
5	0xbed2f4f6	-0.41202515
6	0x3e02e20c	0.12781543
7	0xbcf82a49	-0.0302936
8	0x3e9432bd	0.2894496
9	0x3eb7f6e5	0.35930553
10	0x3eaf21b8	0.34205413
11	0x3d1df8c7	0.03856733
12	0xbd9234ae	-0.07138954
13	0x3e9fd284	0.31215298
14	0x3e71420b	0.2356035
15	0xbe064b17	-0.13114582
16	0xbedbbc56	-0.42917126
17	0x3e899547	0.26871702
18	0x3df395ba	0.118937925
19	0x3e9da093	0.3078657
20	0xbe62cef0	-0.22149253
21	0xbe654c78	-0.22392452
22	0xbdd68e95	-0.10476414
23	0xbd88b331	-0.06674803
24	0xbd722b5d	-0.059123386
25	0xbd6c6269	-0.05771104
26	0x3e5419f7	0.2071303
27	0x3e0b99c0	0.1363287
28	0xbe02f085	-0.12787063
29	0xbe33b7a3	-0.1755052
30	0x3e07d1cf	0.1326363
31	0x3d932ccd	0.071862794
32	0x3c214ce6	0.009844994
33	0x3e65ce08	0.22441876
34	0xbe98d60f	-0.29850814
35	0xbed7d3fb	-0.42153916
36	0xbdf9fcf7	-0.12206452
37	0x3e9bf6b5	0.3046166
38	0x3c013708	0.007886656
39	0x3ec51032	0.3848892
40	0x3e151fd6	0.14562926
41	0xbe4cf71e	-0.20016143
42	0xbe95d27f	-0.29262158
43	0x3dd80cb9	0.10549302
44	0xbea8f9fd	-0.33003226
45	0xbeb14c1a	-0.34628373
46	0xbec63c6f	-0.38717982
47	0x3ead2f0d	0.3382496
48	0xbd85124c	-0.064976305
49	0x3e6e0685	0.23244675
50	0xbd05fb7d	-0.03271054
51	0x3c9a5c72	0.01884291
52	0xbdeeca9f	-0.11659741
53	0x3ec0f6ab	0.37688193
54	0x3e934973	0.28766975
55	0x3e12077c	0.14260668
56	0x3e0a6bb0	0.13517642
57	0x3e39bfac	0.18139523
58	0xbe1e34e7	-0.15449868
59	0xbda9b3c2	-0.08286239
60	0xbc172172	-0.009224283
61	0x3e88328a	0.26601058
62	0x3e8674c3	0.26260957
63	0x3decbaa8	0.11559039
64	0x3ec49b88	0.3839991
65	0x3e85c8b2	0.2612968
66	0x3db7e4b3	0.08979168
67	0x3df236cb	0.11826857
68	0xbec5112d	-0.38489667
69	0xbe98c995	-0.29841295
70	0xbddc23a4	-0.107489854
71	0xbe111d55	-0.14171346
72	0x3c519c09	0.012793549
73	0xbeaa1783	-0.33221063
74	0x3cc281b0	0.02374348
75	0xbec6ced4	-0.38829672
76	0xbe65c725	-0.22439249
77	0x3eb7a337	0.3586671
78	0xbe54c353	-0.20777635
79	0xbeb65889	-0.35614422
80	0xbed1166a	-0.40837413
81	0x3ee7434c	0.4516853
82	0x3d863954	0.06553903
83	0xbe9e88de	-0.30963796
84	0xbcee178c	-0.029063962
85	0xbd4ca2bd	-0.049959887
86	0xbd8d5c3f	-0.0690236
87	0xbe57b017	-0.21063267
88	0x3e9094ce	0.2823853
89	0xbd2631d7	-0.040574875
90	0x3eb4d26b	0.35316786
91	0x3eafee00	0.34361267
92	0x3e0d207e	0.13781926
93	0xbeaa9454	-0.3331629
94	0xbe93400f	-0.2875981
95	0x3ebc213e	0.36744112
96	0xbddfdca9	-0.109307595
97	0xbd1994d2	-0.03749544
98	0x3eb198f7	0.34687015
99	0xbdd5abe6	-0.10433178
100	0x3d08ef1b	0.033431154
101	0x3c74774c	0.014921021
102	0xbeb16000	-0.34643555
103	0xbd8d1f66	-0.068907544
104	0x3ec6e3b3	0.38845596
105	0x3cd63860	0.026149929
106	0xbc9ad081	-0.01889825
107	0x3d293e77	0.041319337
108	0x3e4e5b72	0.20152071
109	0x3e4d86e5	0.2007099
110	0xbe608a7f	-0.21927832
111	0xbe626939	-0.22110452
112	0xbe6995af	-0.22811006
113	0xbe6fb04a	-0.23407093
114	0xbed74ca2	-0.42050654
115	0xbeb45d4a	-0.35227424
116	0x3e5580d5	0.20849927
117	0xbebe3855	-0.37152353
118	0x3e06bba7	0.13157521
119	0xbc5b13e9	-0.013371446
120	0x3e23d633	0.1599968
121	0xbe455654	-0.19271213
122	0xbc9d7b63	-0.019223874
123	0x3eb30e93	0.34972057
124	0x3d8de591	0.06928552
125	0x3e18740f	0.14888023
126	0xbe92feca	-0.28710014
127	0x3e7c76b9	0.24654664
128	0xbeae1428	-0.33999753
129	0xbdec6f0e	-0.115446195
130	0xbdef9856	-0.11698978
131	0x3e92ed2a	0.28696567
132	0xbda01fdf	-0.07818579
133	0x3d81823d	0.06323669
134	0x3ea3775e	0.31927007
135	0xbedd072c	-0.43169534
136	0xbe11abd5	-0.14225705
137	0x3e9e723e	0.30946535
138	0xbe5bba71	-0.2145784
139	0xbd59865f	-0.053106662
140	0xbe86c9ce	-0.2632584
141	0xbe85a698	-0.26103663
142	0xbcb24ad1	-0.02176419
143	0x3ed2a0cf	0.41138312
144	0xbe3784e1	-0.17921783
145	0x3ebef1ac	0.37293756
146	0x3e8b65f1	0.27226213
147	0xbee05909	-0.43817928
148	0x3dabdd94	0.08391872
149	0xbdc127c8	-0.09431416
150	0xbd4bb414	-0.049732283
151	0x3df14d6e	0.11782347
152	0xbe68b80c	-0.22726458
153	0x3ed94dc3	0.4244214
154	0xbdaac64b	-0.08338603
155	0xbec3eb6b	-0.38265547
156	0xbd54d3da	-0.05195985
157	0x3e1d7983	0.15378384
158	0x3e88fdf4	0.2675625
159	0x3eb0f714	0.34563506
160	0xbe14260e	-0.14467642
161	0x3ec2362c	0.37931955
162	0x3e85633c	0.26052272
163	0x3c70ad11	0.0146897
164	0x3e869673	0.2628666
165	0xbd5521e4	-0.052034274
166	0x3e8329a6	0.25617713
167	0xbeddf095	-0.43347612
168	0x3ea79aea	0.32735378
169	0x3e995dad	0.2995428
170	0xbea6046b	-0.32425246
171	0xbeb33772	-0.3500324
172	0xbe40fa19	-0.18845405
173	0x3d7656c1	0.06014133
174	0x3d1012a1	0.035174016
175	0xbeba5b53	-0.363978
176	0x3e47b591	0.19502856
177	0x3d34d9fd	0.044153202
178	0xbe867152	-0.26258332
179	0x3e84ce0f	0.2593846
180	0xbeaaa937	-0.33332226
181	0xbe7cd524	-0.24690682
182	0xbe716ac4	-0.23575884
183	0xbea6ff24	-0.32616532
184	0xbe7fed1d	-0.24992795
185	0x3e9fb7d4	0.31194937
186	0xbe57fd1b	-0.21092646
187	0xbdc148da	-0.094377235
188	0xbd6583e0	-0.05603397
189	0xbd550edc	-0.052016124
190	0x3e8314fb	0.25601944
191	0xbd47994e	-0.048730187
192	0x3dd355b4	0.10319081
193	0x3e60f105	0.21966942
194	0x3e0c95b7	0.13728987
195	0xbeeda045	-0.46411338
196	0xbb248c5e	-0.002510808
197	0x3eb02a1b	0.34407124
198	0xbe305ea6	-0.17223606
199	0x3dcf3346	0.101172015
200	0x3e45fbf6	0.19334397
201	0xbe966ce0	-0.2937994
202	0x3ea535f0	0.32267714
203	0xbdc99509	-0.09842879
204	0x3d9e59bd	0.0773196
205	0xbce0f346	-0.027459752
206	0x3eadc21b	0.33937153
207	0xbeb12195	-0.34595934
208	0x3e33226d	0.17493601
209	0x3e877cb0	0.26462317
210	0xbe6b3d5f	-0.2297263
211	0x3e846764	0.2586013
212	0x3b109ce3	0.0022066168
213	0x3e96a94e	0.29426044
214	0xbe24d866	-0.16098174
215	0x3ebc3120	0.3675623
216	0xbebbeda2	-0.36704737
217	0x3dad2ca6	0.08455782
218	0xbe601d30	-0.21886134
219	0x3e86c2b0	0.2632041
220	0x3e270b22	0.1631284
221	0xbe862460	-0.26199627
222	0xbe361851	-0.17782713
223	0xbe3d80f5	-0.18506224
224	0xbdf3d5d9	-0.119060226
225	0xbdac132d	-0.08402095
226	0xbe70cbfe	-0.23515317
227	0xbeb4e3bd	-0.3533
228	0xbd2c3848	-0.04204586
229	0x3e85d522	0.2613917
230	0xbdbfad94	-0.09359279
231	0xbe64de97	-0.22350536
232	0xbe89a9be	-0.26887316
233	0xbb937171	-0.0044996073
234	0xbcc761a5	-0.024338553
235	0xbe57a7e7	-0.21060143
236	0xbe8ffe3a	-0.28123647
237	0x3ec8a072	0.3918491
238	0x3ed856d8	0.42253757
239	0x3b486d80	0.0030582845
240	0xbd3a8941	-0.04554105
241	0xbdd8d32d	-0.105871536
242	0xbe0b416e	-0.13599178
243	0x3d8d99a3	0.069140695
244	0x3e0f171d	0.13973661
245	0x3ebbef1d	0.36705866
246	0xbe6b473b	-0.22976391
247	0x3e0c262c	0.13686436
248	0xbd53f9f7	-0.051752057
249	0xbdee580b	-0.116378866
250	0x3ea683a6	0.32522315
251	0x3e42ca23	0.19022422
252	0xbeaf102b	-0.34192023
253	0x3ea9522f	0.33070514
254	0x3d32e8a4	0.043678895
255	0x3ef2b46a	0.4740327

bias f4 [256]
0	0xbd811827	-0.06303435
1	0x3de4e88b	0.111771666
2	0x3d568586	0.05237343
3	0xbc454f7a	-0.0120428745
4	0x3d814608	0.063121855
5	0x3e94bc70	0.29050016
6	0x3e87532b	0.2643064
7	0x3e890e07	0.26768515
8	0x3ec645e7	0.38725206
9	0x3a32e234	0.0006823868
10	0xbe3966f9	-0.18105687
11	0xbed58f26	-0.41710776
12	0xbe9c312b	-0.30506262
13	0xbabc6646	-0.0014373742
14	0xbdba92f5	-0.09110061
15	0xbdbf1fbf	-0.09332227
16	0xbe2ebf54	-0.17065173
17	0x3eb70a9d	0.35750285
18	0x3ec3521a	0.38148576
19	0xbebd63ec	-0.36990297
20	0x3df73e8d	0.120724775
21	0xbeb3cb85	-0.3511621
22	0x3eb61d04	0.35569012
23	0xbd83adc2	-0.06429626
24	0xbea0c615	-0.31401125
25	0x3e0ffb20	0.1406064
26	0xbeb5293f	-0.3538303
27	0xbe319263	-0.17340998
28	0x3ebc2fc7	0.367552
29	0xbebd2eab	-0.36949667
30	0x3d5d488d	0.054024268
31	0x3e04032d	0.12891836
32	0xbc9870f5	-0.01860855
33	0xbd363462	-0.04448355
34	0x3e67bf43	0.22631554
35	0xbe0908a8	-0.13382208
36	0xbe95540c	-0.29165685
37	0xbd01602c	-0.031585857
38	0x3e5f9c01	0.21836855
39	0x3de872e1	0.113500364
40	0xbe978bad	-0.29598752
41	0x3e4eb663	0.20186763
42	0x3d9f0066	0.07763748
43	0xbec0e1fd	-0.37672415
44	0xbed51130	-0.41614676
45	0x3d178242	0.036989458
46	0x3d1c5a13	0.03817184
47	0x3e00e9d3	0.12589197
48	0x3e6d6780	0.23184013
49	0xbeae8d4d	-0.3409218
50	0x3e7779cf	0.2416756
51	0x3e9037a7	0.2816746
52	0x3d9c22f3	0.076238535
53	0x3e92f9a2	0.2870608
54	0xbe8b20a4	-0.2717334
55	0xbec7ed54	-0.39048254
56	0xbe9dbe6b	-0.3080934
57	0xbe100760	-0.14065313
58	0xbda2f65c	-0.079571456
59	0xbe15b18b	-0.14618509
60	0xbd8f9578	-0.07010931
61	0x3e841fbe	0.25805467
62	0xbdf1728c	-0.11789426
63	0x3e48a8d1	0.19595648
64	0x3e37bac1	0.17942335
65	0x3b0a8366	0.0021135448
66	0xbedcc832	-0.43121487
67	0x3e090ac5	0.13383015
68	0x3d3191ef	0.043352064
69	0xbe66c4b5	-0.22535975
70	0x3e32f887	0.17477618
71	0xbe07dc3a	-0.13267604
72	0xbea545ff	-0.32279965
73	0xbe2a5713	-0.16634779
74	0x3ec94c75	0.39316145
75	0x3e87bf14	0.2651297
76	0x3e9a5af5	0.3014752
77	0xbcffeec0	-0.031241775
78	0xbe084470	-0.13307357
79	0x3cf36319	0.02971034
80	0x3e8518db	0.25995526
81	0xbdd703c8	-0.10498768
82	0xbd85ee18	-0.065395534
83	0xbd9fbed5	-0.0780007
84	0xbdbb7e6f	-0.09154975
85	0xbe7100aa	-0.2353541
86	0xbed9abc0	-0.42513847
87	0xbe4621a0	-0.19348764
88	0xbe207e53	-0.15673189
89	0x3e9f01f8	0.3105619
90	0x3e8360ac	0.25659692
91	0x3ed11f6d	0.40844288
92	0x3e9ea6ce	0.30986637
93	0xbeaf7630	-0.34269857
94	0x3eb9e630	0.36308432
95	0x3ecf286d	0.4046053
96	0x3e24af7c	0.16082567
97	0xbb4360f8	-0.0029812437
98	0x3dc626b3	0.0967535
99	0xbb2c2cf4	-0.0026271911
100	0x3e8fdf61	0.28100112
101	0x3e6f101c	0.23345989
102	0x3e323625	0.17403467
103	0x3e2f410f	0.17114662
104	0x3dbc27bb	0.091872655
105	0xbeb838b6	-0.35980767
106	0x3e5fc19f	0.21851204
107	0x3ea984ee	0.3310923
108	0xbe158c6d	-0.1460435
109	0xbdd36466	-0.10321884
110	0x3ecfbd11	0.40573934
111	0x3e14d2e7	0.14533578
112	0x3e4fcb21	0.20292331
113	0x3e0f0743	0.13967614
114	0xbd96f9f2	-0.07371892
115	0xbece75fe	-0.40324396
116	0x3e546576	0.2074183
117	0xbea677f1	-0.32513383
118	0xbe884c48	-0.26620698
119	0xbcc4699a	-0.023976136
120	0xbeccfd9b	-0.40037236
121	0xbd45ee89	-0.048323188
122	0x3e993b5a	0.29928094
123	0xbe2bd21f	-0.16779374
124	0xbeac529c	-0.33656776
125	0xbe8458fa	-0.25849134
126	0x3e756e8f	0.23967956
127	0xbe73487b	-0.23758118
128	0x3e90d95d	0.28290835
129	0xbe75dadc	-0.2400927
130	0x3dee378f	0.11631691
131	0xbd43f4f8	-0.047841042
132	0x3e6a3187	0.22870456
133	0x3eae26e7	0.34014055
134	0x3eb17d70	0.34666014
135	0xbe810021	-0.2519541
136	0xbeaed0ed	-0.34143773
137	0xbd398d25	-0.04530062
138	0x3d30a253	0.043123554
139	0xbdfd3bc0	-0.12364912
140	0xbda8bb18	-0.0823881
141	0x3d2ebf0c	0.042662665
142	0x3e61cd4e	0.22050974
143	0x3d4edcf9	0.050503705
144	0x3e8fa5f3	0.28056297
145	0xbe62292b	-0.22086017
146	0x3e1a3762	0.1506019
147	0xbd88235f	-0.066473715
148	0x3e348e8e	0.17632505
149	0x3ea82883	0.32843408
150	0x3eb30565	0.34965053
151	0x3ec7e94f	0.39045188
152	0xbed12c59	-0.40854147
153	0x3e67df93	0.2264388
154	0xbbbd6384	-0.0057796855
155	0x3e52778e	0.20553419
156	0xbe198200	-0.14990997
157	0x3d8adda7	0.06780558
158	0xbe806584	-0.2507745
159	0x3e695dd2	0.22789696
160	0xbe848447	-0.2588217
161	0xbe5081ee	-0.20362064
162	0x3ec3f08e	0.38269466
163	0xbe7b52fc	-0.24543375
164	0x3d66a377	0.056308236
165	0x3dc72f0c	0.0972577
166	0x3e120d55	0.14262898
167	0xbe5ee107	-0.21765529
168	0xbe5bdf16	-0.2147182
169	0x3ed4e402	0.41580206
170	0x3d4238f9	0.047417615
171	0xbe77f9a1	-0.2421632
172	0x3ea2ba69	0.31782845
173	0xbe85c8a6	-0.26129645
174	0xbda19772	-0.07890214
175	0xbec83ecb	-0.39110407
176	0xbe64e9e5	-0.22354849
177	0xbea99c9f	-0.33127305
178	0x3ea28475	0.31741682
179	0x3e9f1586	0.3107111
180	0xbe7e61cc	-0.24841994
181	0x3e548031	0.20752026
182	0x3e7bc6b7	0.24587522
183	0x3ea578a4	0.32318604
184	0x3e04489b	0.12918322
185	0x3e50e737	0.20400701
186	0xbd07409f	-0.03302061
187	0xbd5307bb	-0.051521044
188	0x3ea54baa	0.3228429
189	0xbea9d8f8	-0.33173347
190	0xbd82b268	-0.063816845
191	0x3d25f693	0.040518355
192	0x3da86c3c	0.08223769
193	0x3ea76e64	0.3270141
194	0xbdc34b3c	-0.09535834
195	0x3eae586e	0.34051841
196	0xbec9c106	-0.39405078
197	0x3dde98cd	0.10868988
198	0x3e62046a	0.22071996
199	0x3d164e85	0.036695976
200	0xbed43b66	-0.41451567
201	0x3d9764cd	0.07392273
202	0x3e2a3498	0.16621625
203	0x3e95d524	0.29264176
204	0xbe8e7fb2	-0.278318
205	0xbeb8034a	-0.3594001
206	0xbc0e1a4f	-0.008673265
207	0xbcd1f346	-0.025628697
208	0x3cced856	0.025249641
209	0x3e9db8bb	0.30805
210	0xbe9a3797	-0.30120537
211	0xbda3af14	-0.07992378
212	0xbca9d4ec	-0.020731412
213	0x3db4a138	0.088198125
214	0x3ea7b147	0.3275244
215	0xbdebc891	-0.115128644
216	0x3e6f8a9e	0.23392722
217	0x3eb6a1a7	0.35670206
218	0xbeb10992	-0.34577614
219	0x3e01208f	0.12610076
220	0xbef28d75	-0.47373548
221	0x3ee38dbc	0.44444072
222	0xbd902f0d	-0.07040224
223	0x3ea14cf0	0.3150401
224	0x3dd8494f	0.105608575
225	0x3e701b4e	0.23447916
226	0xbdf3cba8	-0.11904079
227	0x3e515d5c	0.2044577
228	0x3e93b587	0.28849432
229	0x3e0cd2ad	0.13752241
230	0xbeaf7071	-0.34265473
231	0x3ed63df3	0.41844139
232	0xbdbbd77a	-0.09171958
233	0x3e6b8541	0.23000051
234	0x3e805aa8	0.25069165
235	0xbeb1af36	-0.34703988
236	0x3eb761b5	0.35816732
237	0x3d2366d2	0.03989298
238	0xbe133537	-0.14375769
239	0xbe80b8b7	-0.25140926
240	0x3e9fc9e8	0.3120873
241	0x3edfd75e	0.43719
242	0x3ede6037	0.4343278
243	0x39ced1bc	0.00039447646
244	0x3ed242c4	0.41066563
245	0x3a8b6b5f	0.0010636857
246	0xbdf7f4fe	-0.121072754
247	0xbe2c72ea	-0.16840711
248	0x3e6b01d0	0.2294991
249	0x3d5f09ca	0.054452695
250	0x3e0e6b4b	0.13908117
251	0xbeb2bc9c	-0.34909523
252	0xbe3893b5	-0.18025096
253	0xbeaeac1f	-0.34115693
254	0xbeb0bd5a	-0.34519464
255	0xbe12b107	-0.14325343

weight f4 [256, 256]
0	0xbbf8ec2f	-0.0075965147
1	0x3c3ef8a0	0.0116559565
2	0x3c1dd1e7	0.009632564
3	0xbc1fdca7	-0.009757197
4	0xbcb93e0f	-0.0226126
5	0xbd85b0e4	-0.0652788
6	0xbd204933	-0.03913231
7	0x3ad60a09	0.0016329895
8	0xbd1a8554	-0.037724808
9	0xbcd63396	-0.026147645
10	0x3d10720f	0.035265025
11	0xbd71bd3a	-0.05901835
12	0xbd431204	-0.047624603
13	0x3c8c383b	0.017116657
14	0xbd3f5862	-0.046715148
15	0xb9f636db	-0.00046961647
16	0x3d5676d2	0.05235941
17	0x3cb93ae8	0.022611097
18	0x3c7982a8	0.015228905
19	0x3bf8ef63	0.0075968965
20	0x3c9ba506	0.018999588
21	0xbd858765	-0.06519965
22	0x3d0b34ea	0.03398601
23	0xbb90af87	-0.0044154557
24	0xbcd53ae8	-0.026029065
25	0xbba0c35a	-0.0049061
26	0x3d4b9022	0.049698003
27	0x3ce03286	0.027367841
28	0x3bc39c7f	0.0059695835
29	0xbcfdceb6	-0.030982357
30	0x3d51f994	0.051263407
31	0xbb023920	-0.0019870475
32	0xbd003453	-0.0312999
33	0xbc7ad70e	-0.015310062
34	0xbb7d0ab4	-0.0038611116
35	0x3cb46269	0.022019582
36	0xbd2b8b15	-0.041880686
37	0xbd85cd9d	-0.06533358
38	0xbb5f9564	-0.0034116143
39	0xbcde360c	-0.027125381
40	0x3cc53df0	0.024077386
41	0xbd30e4ce	-0.043186955
42	0x3d62c674	0.05536504
43	0xbc02e9c3	-0.007990303
44	0x3b0da8d8	0.0021615531
45	0x3d22a6a3	0.0397097
46	0xbd60d87b	-0.054893952
47	0x3c070159	0.008240067
48	0xbcdaad2e	-0.026693907
49	0xbd8be405	-0.06830601
50	0x3c5882b6	0.013214758
51	0xbb9006b5	-0.004395331
52	0xbd632c13	-0.055461954
53	0x3ba4a645	0.0050247037
54	0x3ce8352c	0.028345667
55	0x3b7d1bc1	0.003862128
56	0x3d28a3a5	0.04117169
57	0x3c0f6d41	0.0087540755
58	0xbd09dbad	-0.033656765
59	0xbce9c74a	-0.028537411
60	0xbcfd9173	-0.030953145
61	0x3d199800	0.037498474
62	0xbd88e5f2	-0.066844836
63	0x3cc02319	0.023454236
64	0xbb13a2c8	-0.0022527445
65	0xbbddc058	-0.006767314
66	0xbd10bec8	-0.035338193
67	0x3d15d582	0.03658057
68	0x3d61db22	0.055140622
69	0x3c45dec3	0.012077036
70	0x3d35d324	0.044390813
71	0xbc3c3240	-0.01148659
72	0xbd846dae	-0.06466232
73	0xbd81712d	-0.06320415
74	0xbcec1815	-0.028820077
75	0xbd382b9a	-0.044963457
76	0x3d4fee74	0.050764516
77	0xbd505297	-0.050860014
78	0x3d334cf2	0.043774553
79	0xbc42fb59	-0.011900746
80	0xbd81a44b	-0.063301645
81	0xbbfbe71f	-0.007687464
82	0x3b0102f6	0.0019685603
83	0xbc1c3e34	-0.009536315
84	0x3c35d018	0.011096977
85	0xbbec2def	-0.007207624
86	0x3d532576	0.051549397
87	0xbd87a322	-0.06622912
88	0xbd4ef43f	-0.0505259
89	0x3d132974	0.035928205
90	0xbd696d6e	-0.056989126
91	0x3d1b1383	0.037860405
92	0x3d391c25	0.045192856
93	0x3cad9c3e	0.021192666
94	0x3c1bf0d9	0.009517872
95	0xbd823215	-0.06357209
96	0xbd022253	-0.031771015
97	0x3c23b17a	0.009991044
98	0xbcebd6bb	-0.028788915
99	0xbca526d7	-0.020160122
100	0xbc8ae3b3	-0.016954279
101	0x3d2215d4	0.0395716
102	0xbd7e57eb	-0.062095564
103	0xbd8282a6	-0.063725755
104	0xbc2f67a1	-0.010705859
105	0xbc6b6ea3	-0.01436964
106	0xbb1485c2	-0.0022662734
107	0x3c3e4a7f	0.011614441
108	0x3c88814a	0.016663212
109	0xbd65243a	-0.05594275
110	0xbd8b6ebc	-0.0680823
111	0x3cb507f9	0.022098528
112	0xbcdd7083	-0.027031189
113	0x3c99ee53	0.0187904
114	0xbc2c9e48	-0.010535784
115	0xbd13444c	-0.035953805
116	0xbd86ada5	-0.06576089
117	0xbbf4b443	-0.007467778
118	0xbbcec2b9	-0.006309834
119	0x3d39d7be	0.045371763
120	0x3aebff6c	0.0018005199
121	0xbd20a782	-0.039222248
122	0x3c9fa2ec	0.019486867
123	0x3d35f4e9	0.044423018
124	0xbd69ea91	-0.057108466
125	0xbce64332	-0.028108213
126	0xbd22a82c	-0.039711162
127	0xbd1ad571	-0.03780121
128	0x3d12401f	0.035705682
129	0xbd000562	-0.031255133
130	0x3c5131dd	0.012768236
131	0xbd6425e9	-0.055700216
132	0xbd1e6bc5	-0.038676996
133	0xbd9ac628	-0.075573266
134	0xbc328d12	-0.010897892
135	0xbd1624bf	-0.036656138
136	0x3d27673b	0.040869933
137	0xbc018ffd	-0.007907865
138	0xbc4a4bbe	-0.01234716
139	0xbd1873b1	-0.037219707
140	0x3d093f76	0.033507787
141	0x3d0f861f	0.035040017
142	0xbd775d43	-0.060391676
143	0x3c85a7e9	0.016315417
144	0x3d630d88	0.055432826
145	0xbd93202e	-0.07183872
146	0xbd028568	-0.031865507
147	0xbd58c435	-0.052921493
148	0x3c16ae06	0.009196764
149	0xbd5293bb	-0.051410418
150	0xbd7190e0	-0.058976054
151	0x3d5552f9	0.052081082
152	0xbd0c316f	-0.03422683
153	0x3d32903d	0.043594588
154	0xbc0e8950	-0.00869973
155	0x3d4aaf50	0.049483597
156	0x3bec3470	0.0072083995
157	0x3c6f03fe	0.014588354
158	0x3c659852	0.014013367
159	0xbca759a7	-0.020428492
160	0x3d2a86be	0.041632406
161	0xbd112252	-0.03543312
162	0xbd406913	-0.046975207
163	0x3c4c8542	0.012482943
164	0x3ce48cea	0.027899224
165	0x3cf9eab6	0.030507427
166	0x3d39ea9f	0.045389768
167	0x3cf6d9f0	0.030133218
168	0x3d18d947	0.037316587
169	0xbd38fde8	-0.04516402
170	0xbac8ac2b	-0.0015310099
171	0x3d2ed01d	0.04267894
172	0x3c8e30b5	0.01735721
173	0xbd867e50	-0.06567061
174	0x3c85e4d0	0.016344458
175	0xbb36292f	-0.0027795543
176	0xbccd9ea7	-0.025100065
177	0xbca430fc	-0.020042889
178	0x3d3564c7	0.044285562
179	0x3d0abf9f	0.03387415
180	0x3d1b59eb	0.03792755
181	0xbb4edebf	-0.0031565872
182	0xbd29efaf	-0.041488346
183	0x3c55f62a	0.013059178
184	0xbb89c752	-0.004204669
185	0x3d04eaf7	0.032450642
186	0x3cf6b37e	0.030114885
187	0xbc88cc72	-0.01669905
188	0xbd8ae9d5	-0.06782881
189	0xbbf59cd2	-0.007495501
190	0x3d2da085	0.04238941
191	0xbd2172cc	-0.03941612
192	0xbd8d46ae	-0.06898247
193	0xbba842d2	-0.0051349187
194	0xbc939bec	-0.018018685
195	0xbc9c0cfc	-0.01904916
196	0xbb7efc3d	-0.003890767
197	0x3d2fffbf	0.042968508
198	0xbc0ae1af	-0.008476659
199	0x3d4bb9c8	0.04973772
200	0xbd14741e	-0.03624355
201	0xbd2826c6	-0.041052602
202	0xbd5dd4d4	-0.054158047
203	0xbce5658e	-0.028002527
204	0xbd920779	-0.071303315
205	0xbb3656e5	-0.002782279
206	0xbd2b276f	-0.041785654
207	0x3cd58b4a	0.026067395
208	0xbd18b8e5	-0.037285704
209	0xbd140755	-0.036139805
210	0xbd8d61e7	-0.06903439
211	0xbd6c1a9f	-0.057642575
212	0x3d2030cd	0.03910904
213	0x3c8716e9	0.016490417
214	0xbd2d4985	-0.04230644
215	0x3d0f8612	0.03503997
216	0xbc83aa0f	-0.016072301
217	0xbb086d2f	-0.0020817032
218	0x3d5fac94	0.054607943
219	0xbd1ff07d	-0.039047707
220	0x3cc5c8cd	0.0241436
221	0xbcbbc617	-0.022921605
222	0xbd3c9766	-0.046042822
223	0xbd013168	-0.031541258
224	0xbd19eff8	-0.037582368
225	0xbce93272	-0.028466437
226	0x3cfbd7c0	0.030742526
227	0x3b5fb509	0.0034135005
228	0xbd54cf1a	-0.05195532
229	0xbd4cb400	-0.04997635
230	0xbd28fae6	-0.0412549
231	0xbd2a154f	-0.041524228
232	0xbd185c1a	-0.03719721
233	0xbb14a743	-0.0022682704
234	0xbd80e94a	-0.06294496
235	0xbd8c8713	-0.06861701
236	0xbd17a05e	-0.037018172
237	0xbcb04727	-0.021518303
238	0xbd45d7dc	-0.048301563
239	0xbc49edbe	-0.012324749
240	0xbcdf9ded	-0.027296985
241	0xbc1d2282	-0.009590747
242	0xbc1e48ec	-0.009660941
243	0xbc878d24	-0.016546793
244	0xbd56f07d	-0.05247544
245	0xbc918a17	-0.017766042
246	0x3d1224d1	0.035679642
247	0xbd80b2ae	-0.062840804
248	0xbd30a251	-0.043123547
249	0x3c86e929	0.016468601
250	0x3bca9070	0.006181769
251	0xbd15de6f	-0.036589082
252	0xbd11faa9	-0.03563944
253	0xbca350d4	-0.019936003
254	0x3d77f2c5	0.060534257
255	0x3d30edf8	0.043195695

bias f4 [256]
0	0xbd8ff10d	-0.07028399
1	0x3aa096e1	0.0012251997
2	0xbcdc56f7	-0.026896937
3	0xbcc3fea5	-0.023925135
4	0x3c6eae1b	0.014567877
5	0xbd18b241	-0.03727937
6	0xbd72f612	-0.059316702
7	0xbcea73f7	-0.02861975
8	0xbd37952b	-0.044819992
9	0xbcd7fe7d	-0.026366467
10	0x3c95fb09	0.01830818
11	0x3d85b4b5	0.06528608
12	0xbc88aff1	-0.016685458
13	0x3d45fcdf	0.04833686
14	0x3b7b2c3c	0.0038325926
15	0x3d6469ad	0.055764843
16	0x3d42166b	0.04738466
17	0xbcd93d13	-0.02651838
18	0xbd6852b9	-0.056719515
19	0x3d39e9ff	0.04538917
20	0xbce4d442	-0.027933244
21	0x3d34eeaf	0.04417294
22	0x3d271608	0.040792495
23	0xbd807be4	-0.0627363
24	0xbd1c7f33	-0.038207244
25	0x3d399aed	0.045313764
26	0x3c844c5e	0.016149696
27	0xbcbd93d6	-0.023141783
28	0xbc3e87ba	-0.011629039
29	0xbd220d01	-0.039563183
30	0x3c89d001	0.016822817
31	0x3d7cd455	0.061725933
32	0x3cb793d9	0.022409366
33	0x3d1f5e62	0.03890837
34	0x3d9096bd	0.07060001
35	0xbd2a0a31	-0.041513626
36	0x3d798e5d	0.060926784
37	0x3b72caf9	0.003704725
38	0x3ce2baae	0.027676906
39	0xbbcdd7d2	-0.0062818313
40	0x3cec92b6	0.028878551
41	0x3c2a0ee0	0.010379523
42	0xbd64cc73	-0.05585904
43	0x3c574b3a	0.013140494
44	0xbc78e01b	-0.01519015
45	0xbca393f0	-0.019968003
46	0x3afba933	0.0019200206
47	0x3d621ca0	0.05520308
48	0x3dab12de	0.08353208
49	0x3d7391eb	0.05946533
50	0x3d7c8052	0.061645813
51	0x3d93d6b6	0.07218687
52	0xbc7e4b24	-0.015520845
53	0xbd962e3b	-0.073330365
54	0x3d87ab7a	0.066245034
55	0xbc897184	-0.016777761
56	0x3c005c1a	0.007834459
57	0xbd090073	-0.033447694
58	0xbadfa2a6	-0.0017062023
59	0x3c97e86b	0.018543443
60	0x3d37d01d	0.044876207
61	0x3d1516c7	0.036398675
62	0xbc0c9df2	-0.008582579
63	0xbd71efc6	-0.059066556
64	0xbd5c2dc2	-0.053754576
65	0xbc9ed2ff	-0.01938772
66	0x3ccd7c34	0.025083639
67	0xbd495e90	-0.049162447
68	0x3d38879b	0.0450512
69	0xbd0b36d0	-0.03398782
70	0x3c9999cf	0.0187501
71	0x3d01705b	0.03160129
72	0x3c390f1b	0.011295105
73	0x3ccc56d6	0.02494375
74	0xbd627103	-0.055283558
75	0x3c1947fb	0.00935554
76	0xbd6265c3	-0.05527283
77	0xbd121c4e	-0.035671525
78	0x3d6de435	0.058078963
79	0xbbd2aa99	-0.006429028
80	0xbd212aa8	-0.03934732
81	0xbd1cffd7	-0.038329925
82	0xbd2fe608	-0.042943984
83	0xbd5201da	-0.051271297
84	0xbc028dc8	-0.007968374
85	0xbd35e85a	-0.04441104
86	0xbcea5db4	-0.028609134
87	0x3d94a185	0.0725737
88	0x3c872132	0.016495321
89	0xbc309488	-0.0107776
90	0x3ccb254c	0.024798058
91	0xbc9ee137	-0.0193945
92	0x3d87c454	0.066292435
93	0x3d862e58	0.06551808
94	0x3d42fc96	0.047604166
95	0xbc9616c7	-0.018321408
96	0xbd8bf9c0	-0.068347454
97	0xbc996208	-0.018723503
98	0xbc9e2a25	-0.019307205
99	0x3d0fee2a	0.03513924
100	0x3b120c0c	0.0022285013
101	0xbc6a1387	-0.014286882
102	0x3d0de5cf	0.03464299
103	0xbd3e20fc	-0.046418175
104	0x3d2eaca0	0.042645097
105	0xbd4d0b17	-0.050059404
106	0x3cd57585	0.026057014
107	0x3d2613d8	0.04054627
108	0x3cf06710	0.029346019
109	0xb73a53bf	-1.1105963e-05
110	0x3c69eec0	0.014278114
111	0xba5ba568	-0.00083788345
112	0x3d3b3d28	0.04571262
113	0xbd576fb7	-0.052596774
114	0x3c8ba39d	0.01704579
115	0xbc8642dd	-0.016389305
116	0x3d592fb7	0.05302402
117	0xbcb2824e	-0.02179065
118	0x3d5c7e45	0.053831358
119	0x3d1b3e19	0.037901018
120	0x3d8af4c1	0.06784964
121	0x3dafcbe6	0.085838124
122	0xbd40e091	-0.047089163
123	0x3d04af88	0.032393962
124	0xbd3f2ddf	-0.046674605
125	0x3c406c01	0.0117445
126	0x3d29501e	0.04133617
127	0x3ce19acf	0.027539639
128	0x3c88c427	0.016695095
129	0x3da13cfe	0.078729615
130	0x3d4ec828	0.050483853
131	0xbd06cfa3	-0.03291286
132	0xbb97ab94	-0.004628608
133	0xbd6f643f	-0.05844521
134	0x3d7c9a19	0.061670396
135	0xbb82bd87	-0.0039898786
136	0x3b5c44b3	0.0033610284
137	0x3d88d8e8	0.066819966
138	0x3d8ef439	0.069801755
139	0x3d1f8993	0.03894956
140	0x3c9b5c78	0.018964991
141	0xbd578e78	-0.052626103
142	0xbd38183e	-0.044944994
143	0x3baa4f47	0.005197439
144	0x3d0d4438	0.034488887
145	0xbd861295	-0.06546513
146	0xbd398a07	-0.04529765
147	0xbd8725fe	-0.06599043
148	0x3d6259dc	0.055261478
149	0xbd482501	-0.048863415
150	0x3d1a05da	0.037603237
151	0x3d87b7a1	0.06626821
152	0x3a291034	0.0006449253
153	0xbc89a012	-0.01679996
154	0x3cc48288	0.023988023
155	0x3be54ee2	0.006997929
156	0x3d9d29c7	0.07673984
157	0xbbc0c822	-0.0058832327
158	0x3d04c413	0.032413553
159	0x3d29baa2	0.041437753
160	0x3c88b2bd	0.016686792
161	0xbcf56c87	-0.029958976
162	0xbd9187db	-0.071059905
163	0xbbbc1d60	-0.0057408065
164	0xbdb16d3e	-0.086634144
165	0xbd70cb50	-0.058787644
166	0xbd861718	-0.065473735
167	0x3d9f6279	0.07782454
168	0x3c40272c	0.011728089
169	0xbbd134fe	-0.006384491
170	0x3d90fd41	0.07079554
171	0xbd0318f2	-0.03200621
172	0xbd61e722	-0.055152066
173	0x3dc3d501	0.09562112
174	0x3b39e5ba	0.0028365687
175	0xbcb2e728	-0.02183874
176	0x3dba3246	0.0909162
177	0x3d9a134c	0.07523212
178	0x3c55803d	0.013031063
179	0x3d72e3f2	0.059299417
180	0x3d5c4588	0.053777248
181	0xbd6f4c1d	-0.058422197
182	0x3d16c573	0.036809396
183	0x3d7b3191	0.061326567
184	0xbd7322ed	-0.05935948
185	0xbca07b3a	-0.019590009
186	0x3cfe9905	0.031078825
187	0xbc342c82	-0.01099694
188	0xbcab01f8	-0.020874962
189	0x3c9b91a2	0.018990342
190	0xbd1eada8	-0.03873983
191	0x3c4a05fc	0.012330528
192	0xbc84bfba	-0.016204704
193	0x3c8c6de6	0.017142247
194	0xbbb31cda	-0.005466086
195	0x3ccd7c61	0.025083723
196	0x3bfef81a	0.007781041
197	0xbca9996d	-0.020703042
198	0x3d144372	0.036197133
199	0xbbc840e2	-0.0061112503
200	0x3d44ea95	0.048075277
201	0x3da51634	0.080608755
202	0xbd68e5d2	-0.0568598
203	0x3d27c0b9	0.04095528
204	0xbc721a6f	-0.01477681
205	0xbd31214f	-0.043244656
206	0x3c72167e	0.01477587
207	0x3ce0a3cc	0.027421854
208	0x3d89f63c	0.067364186
209	0xbd611370	-0.054950178
210	0xbd179cf9	-0.037014935
211	0x3c1d10b5	0.009586503
212	0xbcdbd915	-0.026836911
213	0xbd5eb183	-0.054368507
214	0x3c60795f	0.013700812
215	0xbc3177ea	-0.010831812
216	0x3d89a7e9	0.067214794
217	0x3d64785a	0.05577884
218	0x3d36722e	0.044542484
219	0xbd60993b	-0.054833632
220	0x3cd07cc4	0.025450118
221	0xbaa7937b	-0.0012785041
222	0x3c0e769c	0.008695271
223	0x3d5aed3d	0.053448904
224	0x3ce75ee4	0.02824349
225	0xbd139a99	-0.036036108
226	0xbd10192f	-0.035180267
227	0xbc25618c	-0.010094058
228	0x3d0da5be	0.034581892
229	0xbd1f5b8a	-0.038905658
230	0xbc983207	-0.018578542
231	0x3bf446bf	0.0074547227
232	0x3bdf484a	0.0068140374
233	0xbd12aee3	-0.035811316
234	0xbd08ae7d	-0.03336953
235	0x3c22846a	0.009919265
236	0xbd126b7e	-0.035747044
237	0xbb5ef0cb	-0.0034018036
238	0xbcb95d0d	-0.022627378
239	0x3cb2a043	0.021804934
240	0x3ccd7559	0.02508037
241	0xbc8ad1a6	-0.016945671
242	0xbd00a721	-0.031409387
243	0x3c587888	0.013212331
244	0x3c51e4be	0.012810884
245	0x3d4888c3	0.04895855
246	0xbd460c11	-0.04835135
247	0xbc988815	-0.018619576
248	0x3d22cabb	0.03974412
249	0x3b71fddb	0.0036924991
250	0x3c08142f	0.008305593
251	0xbc13deed	-0.009025318
252	0x3d513303	0.05107404
253	0xbd28668b	-0.041113418
254	0x3d949a5a	0.07256003
255	0x3d0e42cc	0.03473167

weight f4 [64, 256]
0	0xbd26f460	-0.040760398
1	0x3db414e2	0.087930456
2	0xbbeb6e4e	-0.00718478
3	0x3d2ff7ce	0.042960934
4	0x3d849729	0.06474144
5	0xbcee0029	-0.02905281
6	0xbc865d9f	-0.016402064
7	0xbcf6090e	-0.030033614
8	0x3c3f90d0	0.011692241
9	0x3bd5c22d	0.0065233917
10	0x3d9f6b51	0.07784141
11	0x3da88e9c	0.082303256
12	0xbcb649cd	-0.022251988
13	0xbc9f9d94	-0.019484319
14	0x3d9856ba	0.07438417
15	0x3bd92582	0.0066267857
16	0x3d554adc	0.052073345
17	0xbcb5c569	-0.022188859
18	0x3d2e606c	0.042572424
19	0xbd2bd8f1	-0.04195494
20	0x3c5e9a96	0.013586661
21	0x3c020bed	0.007937414
22	0x3aefa786	0.0018284179
23	0x3c941379	0.018075692
24	0xbc2fddf9	-0.010734075
25	0x3d591aba	0.053004004
26	0xb8f5736a	-0.00011704008
27	0x3a056455	0.0005088498
28	0x3cf1c54e	0.029513028
29	0x3c095c1e	0.008383779
30	0x3d048fa9	0.032363568
31	0xbd397a09	-0.045282397
32	0x3d87e545	0.066355266
33	0x3c984553	0.018587744
34	0x3d90c4d8	0.07068795
35	0x3d6987bf	0.057014223
36	0x3d7c712b	0.061631363
37	0xbd025a69	-0.031824503
38	0xbcc43c93	-0.023954665
39	0x3c9bb068	0.019005015
40	0xbc1c460f	-0.009538188
41	0xbc86db20	-0.016461909
42	0x3d416ca1	0.047222737
43	0x3b467b81	0.0030286016
44	0x3d22653c	0.039647326
45	0x3d49d971	0.049279634
46	0xbcf60060	-0.030029476
47	0xbaffae1c	-0.0019506845
48	0x3d702e32	0.058637805
49	0x3d8e481a	0.06947346
50	0x3c3f1d54	0.011664707
51	0x3cd4ce8b	0.025977394
52	0x3d297a4a	0.04137639
53	0x3c9c08b5	0.01904712
54	0x3d2d5ce2	0.042324908
55	0x3c666620	0.014062434
56	0x3d336b1c	0.04380332
57	0x3d8af233	0.06784477
58	0x3c869f07	0.016433252
59	0x3d02373a	0.03179095
60	0xbcd178c9	-0.02557029
61	0xbbe9feec	-0.0071409848
62	0xbc49ff45	-0.012328927
63	0x3c8b4b93	0.01700381
64	0x3ce919d8	0.028454706
65	0xbd40284a	-0.046913423
66	0x3d817cac	0.063226074
67	0xbd580e13	-0.052747797
68	0xbd3f35db	-0.04668222
69	0x39cf6cb9	0.0003956312
70	0x3d363d3c	0.04449199
71	0xbce6edab	-0.0281895
72	0x3dc576b5	0.09641782
73	0x3d887004	0.0666199
74	0xbc88e5e8	-0.01671119
75	0xbccd9d93	-0.025099551
76	0xbc578a88	-0.013155587
77	0xbcaa152a	-0.020762045
78	0x3d6f6f77	0.05845591
79	0x3c812117	0.015762849
80	0x3d63ca5b	0.055612903
81	0xbd4b45e2	-0.049627192
82	0xbbbcc8a6	-0.005761224
83	0xbd006b88	-0.03135255
84	0x3c8dae9a	0.01729517
85	0xbca0fb28	-0.01965101
86	0xbd77b1a9	-0.060472164
87	0x3c9f31ef	0.01943299
88	0xbd11a42b	-0.035556953
89	0x3d1a260d	0.037633944
90	0x3db4b5c9	0.08823735
91	0x3dc6f1a9	0.09714062
92	0x3c552e4e	0.013011528
93	0x3bf1289e	0.0073595783
94	0x3ce0a411	0.027421983
95	0x3d9521a3	0.07281806
96	0x3c21ae2e	0.009868188
97	0x3d8155c9	0.0631519
98	0x3d6d0261	0.057863597
99	0x3d83d6ee	0.06437479
100	0xbd4e6f0f	-0.050398882
101	0xbc2df5dd	-0.0106177
102	0xbd1bc9f0	-0.03803438
103	0x3cd32d83	0.025778538
104	0x3ce3ee1d	0.027823502
105	0xba9f0874	-0.0012133257
106	0xbced27fe	-0.028949734
107	0xbd1254e2	-0.03572548
108	0x3ccaf4e9	0.024774985
109	0x3cdadb4d	0.026715899
110	0x3da7a00e	0.08184825
111	0x3d85fdf8	0.06542581
112	0xbcdefec6	-0.027221095
113	0xbd491028	-0.049087673
114	0x3d4478e3	0.04796685
115	0x3d54d51b	0.051961046
116	0x3d6bb808	0.057548553
117	0x3c074564	0.00825629
118	0x3d703318	0.058642477
119	0x3c26c01a	0.0101776365
120	0x3da9dbb5	0.08293859
121	0x3d935a0d	0.0719491
122	0x3ce8d9ec	0.028424226
123	0xbbfa66ce	-0.00764165
124	0x3ce2cd26	0.027685713
125	0x3c2fe90e	0.010736717
126	0x3d062630	0.032751262
127	0x3be43757	0.006964605
128	0x3d2d0150	0.04223758
129	0xbd3d38bd	-0.046196688
130	0x3d8eee67	0.069790654
131	0x3d0ea7eb	0.034828108
132	0xbc196d73	-0.009364474
133	0xbb8f47fc	-0.004372595
134	0x3d56e55f	0.05246484
135	0x3c8f7155	0.017510096
136	0xbbef6793	-0.007306048
137	0x3dbae57c	0.09125802
138	0x3c2cc153	0.010544139
139	0x3db169c4	0.08662751
140	0x3c2e1f20	0.010627538
141	0x3d371ba9	0.044704113
142	0x3c9035cc	0.017603777
143	0xbca657ec	-0.020305596
144	0x3ce4382b	0.027858814
145	0xbd4ac2a4	-0.04950203
146	0x3d8e65b6	0.069529936
147	0x3c976952	0.018482838
148	0xbc86f09e	-0.016472157
149	0x3ca5341a	0.020166446
150	0xbcefd69a	-0.029277135
151	0x3d514c49	0.05109814
152	0x3d564ab7	0.052317347
153	0x3d526098	0.05136165
154	0x3d00b1ca	0.031419553
155	0xbb519c83	-0.0031984157
156	0xbcafd775	-0.021465043
157	0x3d4a4d05	0.049389858
158	0x3ca0e959	0.019642519
159	0x3cfc5cf3	0.03080604
160	0x3d80a776	0.06281941
161	0xbd0b0ad5	-0.033945877
162	0xbc5b92f2	-0.013401734
163	0x3d00f880	0.031486988
164	0xbd75aa82	-0.059977062
165	0x3cff10a0	0.031135857
166	0x3cf14a57	0.029454393
167	0x3d00d8e0	0.031456828
168	0x3aa25097	0.0012383637
169	0xbd826f1a	-0.06368847
170	0x3b28e773	0.002577272
171	0x3cd98c95	0.026556293
172	0xbd807918	-0.06273097
173	0x3c43ec7b	0.011958237
174	0xbd106eeb	-0.03526203
175	0x3d28d025	0.041214127
176	0xbca0a8c4	-0.019611724
177	0xbd00b36e	-0.031421117
178	0xbd7491c7	-0.059709337
179	0x3d0b60dd	0.034027923
180	0xba31672a	-0.0006767387
181	0xbd37bb65	-0.044856448
182	0x3d42d2da	0.047564365
183	0x3d0d2c69	0.03446618
184	0xbd42c7f3	-0.047553968
185	0xbd6a4372	-0.057193227
186	0x3cf9c547	0.030489577
187	0x3d2d1449	0.042255674
188	0xbd086b14	-0.033305243
189	0xbcfc6f52	-0.0308148
190	0xbd01625a	-0.031587936
191	0xbd18505f	-0.037186023
192	0xbbe00af9	-0.0068372455
193	0x3b1277ce	0.0022349241
194	0x3cfebe9e	0.031096753
195	0xbc83cd69	-0.016089158
196	0xbbcf55ce	-0.0063273674
197	0xbc75b0bf	-0.014995753
198	0xbd654c2f	-0.055980857
199	0x3d991f4e	0.07476674
200	0x3cbf303a	0.023338426
201	0x3d80d728	0.06291038
202	0xbd0454d8	-0.032307476
203	0xbd0bf226	-0.034166478
204	0xbcf3c6af	-0.029757826
205	0xbbca0113	-0.006164679
206	0xbcc519e8	-0.024060205
207	0xbc9784ac	-0.01849588
208	0x3d26bebc	0.040709242
209	0xbcccadc5	-0.024985204
210	0x3d3b0dbd	0.0456674
211	0xbca5bf31	-0.020232769
212	0x3d042e1b	0.032270532
213	0x3c9f3b0c	0.019437335
214	0xbd20a2ec	-0.039217874
215	0x3b53ada8	0.0032299552
216	0x3d532fe5	0.051559348
217	0xbcb34983	-0.021885639
218	0xbd07db46	-0.0331681
219	0xbc5b8510	-0.013398424
220	0xbd70b407	-0.058765437
221	0x3d64fd20	0.05590546
222	0xbc509080	-0.012729764
223	0x3bd2f076	0.0064373566
224	0x3c6341ee	0.013870699
225	0x3d663ab2	0.05620832
226	0x3d74cec7	0.05976751
227	0xbd5ab2fd	-0.053393353
228	0x3b27d709	0.0025610349
229	0x3d474d7e	0.048657887
230	0x3ca6a9f2	0.020344708
231	0x3d84cbbd	0.064841725
232	0x3cec2232	0.0288249
233	0x3c655c32	0.013999032
234	0x3d16708d	0.03672843
235	0xbd2be125	-0.04196276
236	0xbb122720	-0.0022301152
237	0x3ce3b7e0	0.02779764
238	0x3d03c494	0.032169893
239	0x3d8e6ce5	0.06954364
240	0x3d4cead5	0.05002864
241	0x3d96f871	0.07371605
242	0xbd0c07bf	-0.034187075
243	0x3d28a13c	0.04116939
244	0x3d276f0f	0.040877398
245	0x3cfd792b	0.030941566
246	0xbd58d7d6	-0.052940212
247	0xbaecd8e3	-0.0018070008
248	0x3cdfea38	0.027333364
249	0x3daf444f	0.08557951
250	0x3d80288f	0.06257736
251	0x3cd6a2ed	0.026200736
252	0x3d1e0fb0	0.03858918
253	0x3d61edd3	0.055158447
254	0x3b209ed0	0.0024508722
255	0x3c4e8bfb	0.012606616

bias f4 [64]
0	0xbc9e1a24	-0.019299574
1	0x3d456385	0.048190612
2	0xbd5443f6	-0.051822625
3	0x3c8df08c	0.017326616
4	0xbc8d9581	-0.017283203
5	0xbd8c21a4	-0.06842354
6	0xbd118999	-0.035531614
7	0xbc84b0ca	-0.01619758
8	0xbbee5fde	-0.007274612
9	0x3d690376	0.056888066
10	0x3c129ff8	0.008949272
11	0x3d541c77	0.05178496
12	0x3d0679b2	0.0328309
13	0x3d49e0d7	0.04928669
14	0xbb357945	-0.002769069
15	0x3d1ad68a	0.037802257
16	0xbbd2d21d	-0.006433739
17	0x3da5cf64	0.08096197
18	0x3c9ec182	0.019379381
19	0x3cc46dbb	0.023978105
20	0x3d89e400	0.06732941
21	0x3d9fdc8f	0.0780574
22	0x3d5ff9b5	0.0546815
23	0xbdaef75d	-0.085432746
24	0x3cf36f30	0.029716104
25	0xbd9a8d72	-0.0754651
26	0x3c23a763	0.009988639
27	0xbcdb3c30	-0.026762098
28	0xbca96709	-0.020679014
29	0xbc60de47	-0.01372487
30	0xbcc7dbd1	-0.024396809
31	0x3d0664ae	0.03281086
32	0x3ccfae18	0.025351569
33	0xbd66985e	-0.056297652
34	0x3c2a8a84	0.010409001
35	0xbd15c0f6	-0.036560975
36	0xbd3df95d	-0.04638039
37	0x3b634c2e	0.0034682858
38	0xbd7c283c	-0.061561808
39	0xbd947515	-0.07248894
40	0x3d756890	0.05991417
41	0xbcaf176b	-0.021373471
42	0xbaf3315d	-0.001855414
43	0xbc41a268	-0.011818506
44	0xbd68db1e	-0.05684959
45	0x3b8ad304	0.004236581
46	0xbd21ac13	-0.039470743
47	0x3b9c2b6d	0.004765919
48	0x3ca68fc2	0.020332221
49	0x3d2c0b12	0.042002745
50	0xbd5de43a	-0.054172732
51	0xbcc9e67e	-0.02464604
52	0xbc77831a	-0.015106941
53	0xbd4d9b64	-0.05019702
54	0x3c4cc7d2	0.012498813
55	0x3c888f4e	0.016669895
56	0xbd022399	-0.03177223
57	0xbc57faca	-0.013182351
58	0xbc6d5a98	-0.014486931
59	0xbcc6b536	-0.02425633
60	0xbc60ecdf	-0.0137283495
61	0xbd218901	-0.039437298
62	0x3da1b04e	0.078949556
63	0x3c12fb90	0.00897111

weight f4 [256, 64]
0	0x3e203a85	0.15647323
1	0x3d8ee7ac	0.06977782
2	0x3d7baa59	0.061441753
3	0xbdb49515	-0.08817498
4	0x3d99d04b	0.07510432
5	0x3a81ff4f	0.0009918007
6	0x3d027d3d	0.031857718
7	0xbd3b4b52	-0.045726128
8	0x3d1718e2	0.036888964
9	0xbd819740	-0.06327677
10	0x3d390f3d	0.045180548
11	0x3d84cfaf	0.06484925
12	0xbd761e73	-0.060087632
13	0xbda32b15	-0.079672016
14	0x3caf0ccc	0.021368407
15	0xbe0dad86	-0.13835725
16	0x3e0c4fbe	0.13702294
17	0xbde0cb19	-0.10976238
18	0x3db03160	0.086031675
19	0xbdaad077	-0.08340543
20	0xbda58722	-0.08082415
21	0xbd2fe95f	-0.04294717
22	0xbc14a232	-0.0090718735
23	0xbdb0947b	-0.086220704
24	0x3cb57e0d	0.022154832
25	0x3d8faa6e	0.07014929
26	0xbde5acc6	-0.112145945
27	0xbdc99fa1	-0.098449
28	0xbdab2fce	-0.083587274
29	0x3d855408	0.06510168
30	0x3d795e31	0.060880844
31	0xbdc17824	-0.09446743
32	0x3d815513	0.06315055
33	0x3d22ff9c	0.03979455
34	0xbd051a72	-0.032495923
35	0x3e295e50	0.16539884
36	0x3dd35959	0.10319776
37	0x3c539ec6	0.0129162725
38	0x3b0ac7b6	0.0021176166
39	0x3b749843	0.00373222
40	0x3db9285d	0.09040902
41	0xbc988ebe	-0.018622752
42	0xbdbbd5dc	-0.0917165
43	0x3d296964	0.041360274
44	0x3ce2c558	0.027681991
45	0x3e04ee6f	0.1298158
46	0xbd4e30d1	-0.050339524
47	0x3d684772	0.05670876
48	0xbd793b82	-0.060847767
49	0x3dbc3c5c	0.091912
50	0xbcef8c40	-0.029241681
51	0xbd236dd2	-0.039899655
52	0x3d01ec89	0.031719718
53	0x3dbba64e	0.091625795
54	0xbc8d2968	-0.017231658
55	0xbdd5e700	-0.104444504
56	0xbd5f2fb0	-0.054488838
57	0xbe1438e5	-0.14474829
58	0xbcd311eb	-0.02576538
59	0x3dd81265	0.105503835
60	0xbdbd0e5d	-0.09231255
61	0xbccd7c59	-0.025083708
62	0xbd022925	-0.03177752
63	0x3c8cf01a	0.017204333
64	0x3d1ad9e5	0.037805457
65	0xbcbb9898	-0.02289991
66	0xbd9725f1	-0.073802836
67	0x3c28bb73	0.010298598
68	0x3dd74776	0.10511677
69	0x3dd428ce	0.103593454
70	0xbe272063	-0.16320948
71	0x3d8f639a	0.07001419
72	0xbc4a4822	-0.012346299
73	0x3cb177a7	0.0216635
74	0xbd30ba02	-0.04314614
75	0xbe0e0bfd	-0.1387176
76	0x3dc847f3	0.09779348
77	0x3da3bce3	0.07995012
78	0x3da206da	0.07911463
79	0xbd9b01cf	-0.07568704
80	0xbb2b1e78	-0.002611069
81	0xbd35a9ef	-0.044351514
82	0xbc429347	-0.011875934
83	0x3cd9f396	0.026605409
84	0xbd8ec7f1	-0.069717295
85	0xbcadef87	-0.02123238
86	0x3dc4ec73	0.096154116
87	0xbc018b80	-0.007906795
88	0xbdcbb22d	-0.09946094
89	0xbd1f4579	-0.038884614
90	0x3d22e040	0.039764643
91	0xbc0200e2	-0.007934781
92	0x3dd68e82	0.104764
93	0xbd8366be	-0.06416081
94	0xbdcbc061	-0.09948803
95	0x3d906925	0.07051305
96	0x3dce9969	0.100878544
97	0x3d01ab05	0.031657238
98	0xbccc52e4	-0.02494187
99	0xbd13611c	-0.035981283
100	0x3da81f9d	0.08209155
101	0xbdd82239	-0.105534025
102	0xbd3848c0	-0.044991255
103	0xbe0b8be6	-0.13627586
104	0x3d5c431f	0.05377495
105	0xbd7f3421	-0.062305573
106	0xbdc81b74	-0.09770861
107	0xbd1c1724	-0.038108006
108	0x3dbb918b	0.091586195
109	0x3da11a02	0.07866289
110	0xbd18f4fb	-0.037343007
111	0x3d36d571	0.044637147
112	0xbd4c633f	-0.049899336
113	0xbda67734	-0.08128205
114	0x3b2b0dab	0.0026100676
115	0x3df3cd0d	0.11904345
116	0x3d1e92e8	0.03871432
117	0x3db00aad	0.08595786
118	0xbb20cc8b	-0.002453598
119	0x3d764355	0.060122807
120	0xbd8fefa8	-0.07028133
121	0xbdebfdc0	-0.11523008
122	0xbd791ec7	-0.060820367
123	0xbd531f35	-0.051543433
124	0xbd32ca70	-0.04365009
125	0xbcbc716a	-0.023003299
126	0x3d77f0ec	0.060532495
127	0x3da791d2	0.0818211
128	0x3d9a51a9	0.07535107
129	0xbcf21402	-0.029550556
130	0xbd45ea75	-0.0483193
131	0x3d2477d0	0.040153325
132	0x3cb89ea8	0.02253659
133	0xbce909f2	-0.028447125
134	0xb89bc559	-7.427735e-05
135	0x3d848ed4	0.06472555
136	0x3e029aca	0.1275436
137	0x3e1ebe24	0.1550222
138	0x3cd72d9c	0.026266865
139	0x3d8de7a9	0.06928951
140	0x3d188b2e	0.037242107
141	0xbe11c251	-0.14234282
142	0xbd3619ce	-0.044458203
143	0x3df62bb7	0.12020057
144	0xbd2ae44d	-0.04172163
145	0xbcbe2635	-0.023211578
146	0x3ba96ee3	0.0051706894
147	0x3d84b654	0.06480089
148	0x3d53d225	0.05171408
149	0x3dbd6e84	0.09249595
150	0xbd9b1df5	-0.07574073
151	0x3d3222eb	0.04349033
152	0x3d607222	0.054796346
153	0x3c0f8e4c	0.008761954
154	0xbdc4d56e	-0.09611021
155	0xbd5035d9	-0.050832603
156	0x3cd1e833	0.025623417
157	0x3caa74bd	0.020807618
158	0x3d55ce22	0.052198537
159	0xbda16068	-0.07879716
160	0x3dcec334	0.10095826
161	0xbd96eba2	-0.07369162
162	0xbb0cfacd	-0.0021511794
163	0xbe0978ed	-0.13425036
164	0xbdbb62d7	-0.091497116
165	0x3d4e418f	0.05035549
166	0x3d1f56fa	0.038901307
167	0x3c46ef96	0.012142083
168	0xbd77db08	-0.06051162
169	0xbd6967c9	-0.056983743
170	0x3d144012	0.036193915
171	0x3db9fd0d	0.09081469
172	0x3e1bce46	0.15215406
173	0xbd308b81	-0.04310179
174	0x3d1391b8	0.03602764
175	0xbd7ef154	-0.062241867
176	0xbdcfd67e	-0.10148333
177	0x3dc07f09	0.0939923
178	0x3d627b96	0.055293642
179	0x3d8e7cf0	0.06957424
180	0x3d96919f	0.07351994
181	0xbe0193cd	-0.12654038
182	0x3c221302	0.009892227
183	0xbe011f54	-0.12609607
184	0x3d8fa12c	0.07013163
185	0x3dfe8399	0.12427444
186	0x3d637602	0.055532463
187	0x3d096b52	0.033549614
188	0xbcd5bb60	-0.026090324
189	0x3cf1e6c8	0.02952899
190	0xbbac7f9b	-0.005264235
191	0xbcc3713c	-0.023857705
192	0x39524953	0.00020054476
193	0x3d608e4b	0.0548232
194	0xbdada8a5	-0.08479432
195	0xbd6b73b3	-0.057483386
196	0xbd0b7ca7	-0.034054425
197	0xbdb5dbc9	-0.08879811
198	0xbda7355e	-0.08164476
199	0x3dceb680	0.10093403
200	0x3d8774ac	0.0661405
201	0x3cfaf306	0.03063346
202	0x3d0d2c2e	0.03446596
203	0xbdf1451d	-0.117807604
204	0xbc9b7c8a	-0.018980283
205	0xbd166994	-0.03672178
206	0x3cd8b9d3	0.026455795
207	0x3c80339b	0.015649607
208	0x3d404869	0.046944056
209	0x3db2d1d9	0.087314315
210	0xbdd30ec0	-0.10305548
211	0x3dbf4daa	0.09340985
212	0x3d13787a	0.036003567
213	0xbdc675ee	-0.09690462
214	0xbd0815a3	-0.03322376
215	0xbdfa71fc	-0.12228772
216	0xbd9ddd89	-0.0770827
217	0xbde7daae	-0.11321007
218	0x3d083964	0.033257857
219	0x3d0c0a0a	0.03418926
220	0xbc04ba5e	-0.008101074
221	0xbda9b5b3	-0.082866095
222	0xbdbff077	-0.09372037
223	0xbd356494	-0.044285372
224	0x3d82ef24	0.06393269
225	0x3dfd0ec9	0.12356336
226	0x3d1c5070	0.03816265
227	0x3d81f733	0.06345978
228	0x3d33c963	0.04389323
229	0x3d7f18b5	0.06227942
230	0xbd060402	-0.032718666
231	0x3de494f2	0.111612216
232	0x3dd76685	0.10517601
233	0xbdad31f0	-0.084567904
234	0xbdb6a762	-0.089186445
235	0x3d7ae6ff	0.06125545
236	0xbba575a8	-0.005049426
237	0xbde309d1	-0.11085857
238	0xbd5a1027	-0.05323806
239	0xbdc574ed	-0.096414424
240	0x3de7ffad	0.11328063
241	0xbddbc265	-0.10730437
242	0x3d3cd245	0.046098966
243	0x3a031d70	0.000500164
244	0x3d354e76	0.04426428
245	0xbdb5793b	-0.088610135
246	0x3d8588b3	0.06520214
247	0xbd2d74f6	-0.04234787
248	0xbc9980e9	-0.018738227
249	0x3d46c546	0.04852798
250	0x3d5a5d34	0.05331154
251	0xbcd6956d	-0.026194299
252	0xbd826325	-0.063665666
253	0x3d6b5ba4	0.057460442
254	0x3c783a56	0.015150627
255	0x3dd3f133	0.103487395

bias f4 [256]
0	0x3de43ebd	0.11144779
1	0xbdc37fee	-0.09545885
2	0x3cf0e293	0.029404914
3	0xbdc765ba	-0.097362
4	0xbd63c056	-0.055603348
5	0x3de47f99	0.1115715
6	0x3db03f32	0.086058035
7	0x3dadd0ca	0.08487089
8	0x3dc961b2	0.09833087
9	0x3cd422aa	0.025895435
10	0x3d071940	0.032983065
11	0xbd24b2ca	-0.04020957
12	0xbd0fae7f	-0.03507852
13	0x3d105b9e	0.035243623
14	0xbdfad9bf	-0.12248563
15	0x3dcb4a81	0.0992632
16	0x3dc8d72b	0.09806665
17	0xbd1497b0	-0.036277473
18	0x3ce16e77	0.027518494
19	0x3ba7212f	0.0051003913
20	0xbc826568	-0.015917495
21	0x3dbae305	0.09125332
22	0x3d099d76	0.033597432
23	0x3c9fa6b7	0.019488676
24	0x3d092d52	0.033490486
25	0xbcc54485	-0.024080524
26	0xbde0eaf4	-0.10982314
27	0xbdb9e7a4	-0.09077385
28	0xbdc6fcc1	-0.09716178
29	0xbde051ad	-0.109530784
30	0xbbcd45b0	-0.006264411
31	0x3c1fb270	0.009747133
32	0x3d3a6854	0.04550965
33	0xbdf3996c	-0.11894497
34	0x3ddab168	0.10678369
35	0x3db6a82f	0.08918797
36	0x3cb7431e	0.022370871
37	0xbceeea51	-0.029164465
38	0x3d7bf5d0	0.061513722
39	0xbd77511d	-0.06038009
40	0x3d478499	0.04871044
41	0x3c2bcf65	0.010486458
42	0x3d632551	0.05545551
43	0x3c7efa27	0.015562571
44	0xbd572244	-0.052522913
45	0x3c854f11	0.016273053
46	0xbde8c718	-0.11366099
47	0xbd9291df	-0.07156729
48	0xbcd0bed6	-0.025481623
49	0x3d1d70e2	0.03843773
50	0xbd2042da	-0.039126255
51	0x3ce4c182	0.027924303
52	0x3ba71523	0.0050989552
53	0xbdfafbdc	-0.122550696
54	0x3c0f9e2d	0.008765739
55	0xbcb02455	-0.0215017
56	0xb9bfb623	-0.0003656606
57	0xbd341211	-0.043962542
58	0xbe007dd7	-0.12548004
59	0xbd03ee62	-0.03220976
60	0xbce60f38	-0.028083429
61	0x3d135b03	0.035975467
62	0x3df8cfcf	0.12149011
63	0x3c5ebd6f	0.013594969
64	0x3b6457b5	0.0034842317
65	0x3ded0096	0.115723774
66	0xbcc4b130	-0.02401027
67	0x3d9b892a	0.07594521
68	0x3a974539	0.0011541016
69	0x3dace438	0.08441967
70	0xbb9ede91	-0.0048483093
71	0x3db32f0c	0.08749208
72	0x3dcdaf19	0.10043163
73	0xbddd390c	-0.108018965
74	0xbc67b9c4	-0.014143411
75	0x3d2c9e62	0.042143233
76	0xbdb23b3d	-0.08702705
77	0xbbfc330b	-0.0076965145
78	0x3d413023	0.047165047
79	0xbce81580	-0.028330564
80	0xbd9e86af	-0.077405326
81	0x3d93d7c7	0.07218891
82	0xbda8421e	-0.08215736
83	0xbe0e9f7c	-0.13928026
84	0xbc76ad8b	-0.015056024
85	0x3d893195	0.0669891
86	0x3cebaab9	0.02876793
87	0x3aa4184d	0.0012519449
88	0xbcd54993	-0.02603606
89	0x3d999d2b	0.075006805
90	0x3dda54f5	0.106607355
91	0xbddd54b3	-0.10807171
92	0xbdf5cee4	-0.12002352
93	0xbd92b7b7	-0.07163947
94	0x3c2ee9b2	0.0106758345
95	0xbce5f584	-0.028071173
96	0xbd4e0e77	-0.050306763
97	0x3e0b9ccb	0.1363403
98	0xbce35211	-0.027749093
99	0xbcac2054	-0.021011509
100	0x3db6afed	0.08920274
101	0x3de68351	0.11255515
102	0xbd896b9b	-0.06709977
103	0xbd069de3	-0.032865416
104	0x3c635ca2	0.013877066
105	0xbd096244	-0.03354098
106	0xbd437310	-0.047717154
107	0xbda9baed	-0.082876064
108	0x3d50a37b	0.050937157
109	0xbcdbf8fb	-0.026852122
110	0xbd3cbae1	-0.04607666
111	0xbd957adf	-0.072988264
112	0x3d98e997	0.07466429
113	0xbd7e2cea	-0.062054552
114	0xbd5f20de	-0.054474704
115	0x3da93d74	0.082636744
116	0xbceb80cd	-0.02874794
117	0xbde1de69	-0.110287495
118	0xbc031191	-0.007999794
119	0x3da9ef27	0.08297568
120	0xbd3fb96f	-0.046807703
121	0xbd0ee88b	-0.03488974
122	0x3cc3fb27	0.02392347
123	0x3d944772	0.072401896
124	0x3ced2f58	0.02895324
125	0xbd91dc65	-0.07122115
126	0x3cc56870	0.024097651
127	0x3da21ac7	0.079152636
128	0xbd72a6e3	-0.059241187
129	0x3d48353c	0.048878893
130	0x3d9f1580	0.07767773
131	0x3dc91ef7	0.09820359
132	0xbd5eb567	-0.054372218
133	0x3e029105	0.12750633
134	0x3d959a77	0.073048525
135	0x3d81fb4b	0.063467585
136	0xbcb1da37	-0.021710498
137	0xbdd61165	-0.104525365
138	0xbb11cef4	-0.0022248598
139	0x3d926ef5	0.071500696
140	0xbd0cc341	-0.034365896
141	0x3d3a902e	0.045547657
142	0xbc55fd5f	-0.013060897
143	0xbd2b8836	-0.041877948
144	0x3d3dd19f	0.04634249
145	0x3e140869	0.14456333
146	0x3df43364	0.119238645
147	0xbd681658	-0.056661934
148	0xbce2ab0e	-0.027669456
149	0xbd12c7e9	-0.03583518
150	0xbb461e4b	-0.0030230458
151	0xbdc7c8b3	-0.09755077
152	0x3d2f2ed0	0.042769253
153	0xbdfd7b8f	-0.123770826
154	0x3df668ce	0.12031709
155	0x3da6c5a0	0.08143163
156	0xbe04d1b5	-0.12970622
157	0xbd8b2914	-0.067949444
158	0xbd8a1131	-0.0674156
159	0x3d1e4de5	0.038648505
160	0x3b5856de	0.0033010761
161	0x3d199406	0.03749468
162	0x3dbf91e2	0.09353997
163	0x3dc40689	0.09571559
164	0xbce647cf	-0.028110413
165	0x3c2d63ff	0.010582923
166	0xbcf451e1	-0.0298242
167	0xbdb5f4aa	-0.088845566
168	0x3d35fca4	0.04443039
169	0x3cd217a4	0.025646038
170	0xbde9967f	-0.11405658
171	0x3d29af03	0.04142667
172	0xbdcfe930	-0.10151899
173	0xbd815972	-0.063158885
174	0xbe01b0e8	-0.1266514
175	0xbdf01714	-0.11723152
176	0xbca5dc01	-0.020246508
177	0xbc8e561f	-0.01737505
178	0xbc9e470a	-0.019320983
179	0x3d2ebcfa	0.04266069
180	0x3d969172	0.0735196
181	0x3d96aa39	0.07356686
182	0xbdde5908	-0.10856825
183	0x3d149c5f	0.03628194
184	0x3d15e7bd	0.036597956
185	0xbd4a75c3	-0.049428713
186	0x3bc2a7cb	0.0059404126
187	0x3d1a6ea7	0.037703183
188	0xbcbfd37f	-0.023416279
189	0x3d1d44b4	0.0383956
190	0xbd995a27	-0.07487898
191	0xbdaf339a	-0.08554764
192	0x3d8e441b	0.06946584
193	0xbd4391e8	-0.04774657
194	0x3b5c4d8d	0.003361556
195	0x3da5d067	0.0809639
196	0x3debf73d	0.11521766
197	0xbb20d705	-0.0024542224
198	0xbd488078	-0.048950642
199	0x3dc3e30b	0.095647894
200	0x3de8c258	0.11365193
201	0x3b3bb1e4	0.0028639967
202	0x3d5f5722	0.054526456
203	0xbe21989c	-0.15780872
204	0xbc81fd5d	-0.015867883
205	0x3c0d7789	0.008634456
206	0xbd7ecd1a	-0.06220732
207	0x3d31f9dd	0.04345118
208	0xbc344c41	-0.0110045085
209	0xbdcff545	-0.10154203
210	0x3d3bdb2f	0.045863327
211	0x3dd2531d	0.10269759
212	0xbda64fae	-0.081206664
213	0x3d345002	0.044021614
214	0xbd942765	-0.072340764
215	0xbde48b84	-0.11159423
216	0x3ddd226c	0.10797581
217	0xbd8d164e	-0.0688902
218	0x3e03ba46	0.12864026
219	0xbd2ffaaa	-0.04296366
220	0x3d8d5a88	0.06902033
221	0xbdaa58a6	-0.083176896
222	0x3d027a20	0.03185475
223	0xbd251c87	-0.04031041
224	0x3dc4fca1	0.09618498
225	0x3d3af2e6	0.045641802
226	0x3d111acb	0.035425942
227	0x3dc58f4d	0.09646473
228	0xbde47f5e	-0.11157106
229	0xbc9143b3	-0.017732477
230	0x3cf76d2f	0.03020343
231	0x3dc04915	0.09388939
232	0x3dd47ba6	0.103751466
233	0x3d3b64ac	0.045750305
234	0xbb09cc55	-0.0021026332
235	0x3da64ec9	0.08120496
236	0xbd24773f	-0.040152784
237	0x3dba507a	0.09097381
238	0xbb35b76f	-0.0027727743
239	0xbd3d401c	-0.046203718
240	0xbddd4972	-0.10805024
241	0xbccd9223	-0.025094097
242	0x3da2e54d	0.07953892
243	0xbdbe1c30	-0.0928272
244	0x3bcb14fa	0.006197569
245	0xbd5552f0	-0.05208105
246	0x3d533609	0.051565204
247	0x3e014673	0.1262453
248	0x3d3067d3	0.043067764
249	0x3c53a9e2	0.012918921
250	0x3c5a933d	0.013340768
251	0x3da59260	0.080845594
252	0x3d8a0ec6	0.06741099
253	0x3ca67049	0.020317214
254	0x3adf4194	0.0017033094
255	0x3df144d2	0.117807046
